gans/wganc_discriminator.pth (torch, 433639 bytes, 21 tensors)

model.0.weight f4 [16, 1, 3, 3]
000000 91 2f 60 3e 69 8e 95 3d 57 c9 7d be 64 14 24 3e
       0.21893145 0.07302553 -0.24783836 0.16023403
000010 8a a9 72 3c 97 f5 05 be ac b2 23 3e 70 06 da 3d
       0.014810929 -0.13081966 0.15986127 0.10645759
000020 24 5a 4c bd b4 87 0d 3e c2 81 1c 3e 54 6d f1 3d
       -0.049890652 0.13821298 0.15283874 0.11788431
000030 5a 12 fd bc 7a c5 d8 3d 8a a0 15 3d e8 a5 1e be
       -0.03089254 0.10584541 0.036530055 -0.15492976
000040 66 4f bb 3d 2d e5 09 3e 2c 8a 47 3d d2 c9 0b 3e
       0.091460034 0.1346633 0.048715755 0.13651207
000050 a4 21 7b bd fc 3a 6e 3d b8 21 b5 3e 23 26 08 3e
       -0.06131138 0.05816172 0.35377288 0.13295798
000060 73 22 de bd 5a cc e0 3d 34 ef 22 be 4f 14 98 3d
       -0.108464144 0.10976477 -0.15911561 0.074257486
000070 2a 85 66 be 5c ee da 3c c9 b2 be 3e 75 52 1e bd
       -0.22511736 0.026724987 0.37245777 -0.038652856
000080 02 79 5d bd c7 87 79 3e 17 71 98 bd ce 7b 57 be
       -0.05407048 0.24368201 -0.07443445 -0.21043321
000090 8e 83 14 be 37 87 cf bd 54 93 56 3d df 3e 43 be
       -0.14503309 -0.10133212 0.052386597 -0.19066952
0000a0 74 17 cd be bb 98 3e be 2c 83 b9 bd 8c 99 a4 be
       -0.40056956 -0.1861295 -0.09058222 -0.32148397
0000b0 3d 54 0d be 1c 0d 82 be 8b a9 84 be b4 b9 48 3e
       -0.13801666 -0.25400627 -0.259106 0.1960209
0000c0 c3 e9 42 be 51 ea af 3d 01 75 b7 3e cb f2 94 be
       -0.19034486 0.08589614 0.35831454 -0.29091486
0000d0 8c ed 5d 3e d0 5f 24 3e c3 10 92 be 1d 03 f8 3c
       0.21672648 0.16052175 -0.28528413 0.030274922
0000e0 87 9a 3d be ed dc 8c be 80 cb 17 3e e5 30 92 3e
       -0.18515979 -0.27512303 0.14823723 0.2855293
0000f0 c9 14 47 3e d4 df 40 3e ce 90 e9 3e 47 7c 09 3c
       0.19441523 0.18835384 0.4561829 0.008391446
000100 5c 78 12 3d 77 2d 59 be d9 75 31 bd df 8a 4e bd
       0.035759315 -0.2120875 -0.04332528 -0.050425407
000110 24 01 3c be b6 4d 71 3d 48 b4 c2 bd 8b ff 9e bd
       -0.1835981 0.058912 -0.09507042 -0.07763585
000120 e8 26 bb bb fe 32 6c 3d 2a 5c 23 3e 06 ca ac 3d
       -0.005711425 0.057665817 0.15953127 0.084369704
000130 33 41 11 3e 40 66 bd 3c a2 5a 05 3e 91 22 b3 bc
       0.14185028 0.023120046 0.13022855 -0.021867068
000140 0b 54 82 3d b5 4a 69 3d dd 29 17 3e 36 eb 03 3e
       0.06363686 0.05695601 0.14762063 0.12882695
000150 f8 d9 23 3c 85 d7 61 3e 74 91 00 bd 6a da 40 bc
       0.010000698 0.2205487 -0.031388715 -0.011770824
000160 6e 3f 13 3d f5 55 39 b9 8c 5f 72 3d 0d 96 53 be
       0.035949163 -0.00017674996 0.05917315 -0.20662709
000170 76 19 d5 bd e9 95 c8 3c 87 2a ee bd 1f 29 92 be
       -0.10405247 0.024485545 -0.11629205 -0.28546998
000180 39 39 6a 3e 38 f7 18 3e ca 45 0b be 65 d8 57 be
       0.22873391 0.14938056 -0.13600841 -0.21078642
000190 bf 06 2a 3e 94 73 fa bd 99 89 5f be 0d 19 41 3e
       0.16604136 -0.12229076 -0.21829833 0.18857212
0001a0 00 89 77 3e 34 4e 3a 3e 16 62 10 3e 9d c3 73 3e
       0.24173355 0.18193895 0.14099917 0.2380509
0001b0 ad e4 d5 3d 04 33 98 3b ba b3 95 bd 61 29 32 be
       0.10444007 0.0046447534 -0.07309671 -0.17398597
0001c0 24 76 39 be 08 1e 91 bd 3a b9 be bd eb 2e 69 3c
       -0.18111473 -0.07085806 -0.09312673 0.0142323775
0001d0 c8 ec 42 3d 9c ba b5 be bc 70 d6 be 69 b5 39 be
       0.047589093 -0.35493934 -0.41882885 -0.18135609
0001e0 e1 e4 e7 3d 6c 88 86 3d ae 14 e7 bd d4 18 6b 3e
       0.11322952 0.06568989 -0.11283241 0.2295869
0001f0 28 c5 c1 3e c9 e5 8c 3e ae 27 7c bd 09 dd f1 3d
       0.3784573 0.27519062 -0.06156128 0.11809737
000200 21 8f 94 3d a9 96 26 be ce cc c4 bd cf a5 32 3e
       0.07253862 -0.1626841 -0.09609376 0.17446063
000210 25 72 33 3e 51 f0 74 3e 43 64 ca 3d 57 f6 37 be
       0.17524011 0.23919798 0.09882405 -0.17965065
000220 a7 31 55 be f6 73 f9 bd 9d f9 5c 3d 50 fa 72 bd
       -0.20819722 -0.12180321 0.053948987 -0.059320748
000230 18 a2 ad 3d 13 b4 fb bd ad da 36 be b5 0e 19 be
       0.084781826 -0.12290206 -0.17856856 -0.14947017

model.0.bias f4 [16]
000000 1f 82 33 3e 02 c3 aa 3e 2f 1d 92 3e cf 17 54 3d
       0.17530106 0.33351904 0.2853789 0.05178052
000010 d7 49 7c bc d4 c3 3e 39 58 aa d1 bd da 25 8c 3e
       -0.015398464 0.00018192764 -0.102375686 0.27372628
000020 b9 48 c9 3e ab a1 a0 3e 52 58 33 3e 0f 04 9a 3e
       0.39313295 0.31373343 0.1751416 0.3008122
000030 ae 33 3c 3e bf 25 73 bb ce 4a 94 3e 94 6f cf 3e
       0.18379089 -0.0037101356 0.2896332 0.40514815

model.3.weight f4 [32, 16, 3, 3]
000000 12 17 29 bd 8c 5c 51 3d bd e3 45 3d 29 0b 6d 3c
       -0.041281767 0.05111365 0.04831289 0.014467993
000010 1f 16 92 3b 76 b6 39 bd f3 f9 c2 3a 1d b7 86 3d
       0.0044582034 -0.045340024 0.0014875516 0.06577895
000020 13 c4 33 3d f9 a3 c5 3c ed 27 25 3d a0 a9 0c 3d
       0.043888163 0.02412604 0.04032128 0.034341455
000030 eb cf 96 3d 34 41 01 bc cc 23 7f 3c 4d 12 f1 bc
       0.07363876 -0.007889081 0.0155724995 -0.029427672
000040 a4 94 36 3c ca 37 0c bd 0c 51 fa 3c 0e 6e cd 3d
       0.011143837 -0.034232892 0.030556224 0.10030757
000050 fd e0 28 bd 88 88 0b 3c 87 ca ec 3b f4 64 62 3d
       -0.04123019 0.008516438 0.0072262916 0.055272058
000060 b6 e0 d9 bc cd d9 1d 3d ce 26 77 3d f5 b9 29 bd
       -0.026596408 0.03853779 0.06033974 -0.041437108
000070 83 bc de 3c 2b 99 58 bd 83 7c ae ba 35 bf b7 bc
       0.027189499 -0.052880447 -0.0013312254 -0.022430042
000080 06 da e2 bc 63 fa de bc 0e 89 e1 bc 67 bc 01 3d
       -0.027691852 -0.027219003 -0.027531173 0.031673815
000090 4a ca 8f bd 1b 30 b1 bd d0 45 c8 bd 38 6a 07 3d
       -0.070210055 -0.086517535 -0.09778941 0.033060282
0000a0 be e0 b3 3c 9f 7a 68 3c 69 ae 31 3d 62 30 84 3d
       0.021957751 0.014189391 0.04337922 0.06454541
0000b0 29 e2 c7 3d a6 fb a5 bc 53 e0 ff bc ff 79 38 3d
       0.097599335 -0.020261597 -0.031234896 0.04503822
0000c0 bc a2 09 bd 3c b0 06 bd f3 db ff bb 03 97 72 39
       -0.03360246 -0.032882914 -0.0078082024 0.00023135175
0000d0 f6 d4 a6 bc 02 91 77 bd af 17 8f bd 98 e5 65 bd
       -0.02036522 -0.060441025 -0.06986939 -0.05612716
0000e0 64 ab a4 bd c2 89 12 be 6b be 28 be 00 a4 c8 bd
       -0.08040503 -0.14310363 -0.16478889 -0.097969055
0000f0 8e 0d 0b ba 77 7b 04 be 96 89 0b bc 1a f0 a4 3c
       -0.0005304449 -0.12937723 -0.00851669 0.02013402
000100 2d 99 45 bd 23 4d 69 bc c2 34 16 bd 33 07 29 bd
       -0.048241783 -0.014239582 -0.036671408 -0.04126663
000110 34 88 00 3d 11 39 cb 3c 3a 9f d3 3c 2a c6 46 3c
       0.031379893 0.024807485 0.025832761 0.012132207
000120 a4 4a f1 bb 48 f6 03 3c 5c 66 4b 3d 63 be 88 bc
       -0.007363634 0.0080543235 0.049658164 -0.016692346
000130 e6 02 28 3c 77 c4 4f 3d ef fb af 3c bb ed 35 bd
       0.010254597 0.050724473 0.021482436 -0.04441617
000140 b8 7b 92 3d 0d dd 97 3d e8 3c b3 bc 4c 4e d9 bc
       0.07152504 0.07415209 -0.021879628 -0.026526593
000150 7e 31 41 3d db 80 71 3b 39 af 86 3c c8 02 93 bb
       0.04716634 0.0036850485 0.016440975 -0.0044864155
000160 36 80 c3 3c cc 56 d5 3d 3f 05 23 bd 1c ba 27 bd
       0.023864847 0.10416946 -0.039799925 -0.040948972
000170 50 1b e8 3c b3 08 28 bd 15 b3 75 bd 91 8c 0f 3d
       0.028333336 -0.04102392 -0.05998524 0.035046164
000180 45 5d bb 3c ee ed d6 3c 66 ce 90 bb d8 5f c6 bb
       0.022871623 0.0262365 -0.004419136 -0.006053906
000190 ab ea 11 bc 13 5e 06 bd 13 07 7f 3c e3 de f4 3c
       -0.008906047 -0.03280456 0.0155656515 0.029891437
0001a0 b0 cf ff 3c 81 f3 e1 bc 67 1f fd bc ea 8b 6a 3b
       0.031226963 -0.027581932 -0.030898763 0.0035788962
0001b0 0c c7 3c 3d 72 e4 86 bd 75 02 4a bd a7 50 9c bc
       0.046088263 -0.06586541 -0.04931875 -0.019081427
0001c0 ed 57 27 bd e9 83 b0 bc c4 4e 8b 3b ff 5b aa 3c
       -0.040855337 -0.021547275 0.004251333 0.02079582
0001d0 7f 4b a4 3d 8c 97 39 bd 04 24 da bd 34 fe ac bd
       0.08022212 -0.045310542 -0.10651401 -0.08446923
0001e0 12 02 ec bd 05 d9 08 be bc f0 02 be 73 40 49 bd
       -0.115238324 -0.13364036 -0.12787145 -0.04913373
0001f0 03 73 91 bd 34 1b 8a bd f4 ab 4b 3b 3b 95 6f 3d
       -0.07102015 -0.0674347 0.0031077834 0.058491927
000200 83 40 0a 3d ab 68 3a 3d 9c 01 13 bd 42 3d 5a bd
       0.03375293 0.045509975 -0.035890207 -0.053281076
000210 db 18 72 3c f7 37 93 bb 61 03 9c bb 91 65 90 3d
       0.014776434 -0.0044927555 -0.004761145 0.07050622
000220 08 b9 95 bd 35 50 9a bc 39 07 58 3d 85 ac 75 bd
       -0.073106825 -0.018837074 0.052741263 -0.05997898
000230 16 fd 8c bb 06 5f 76 bd aa 57 8d 3d 13 9f 7d 3c
       -0.004302631 -0.060149215 0.06901486 0.015479821
000240 43 c5 b5 3b 34 33 41 3d 8c 34 94 3d 53 8d 6d 3d
       0.005547197 0.04716797 0.07236585 0.057996105
000250 d4 75 c2 3c 72 27 b6 bc 49 a2 b3 3d b3 05 a7 bc
       0.023737825 -0.022235606 0.08771188 -0.02038846
000260 60 a2 3a 3d 07 34 9e 3d 8c 22 3c bc 8c 4b 31 bc
       0.04556501 0.07724767 -0.011482846 -0.010821234
000270 52 09 99 3d ba 6d af 3c 05 3e fe bc a1 d7 fe 3c
       0.07472481 0.021414626 -0.031035433 0.03110868
000280 ad 2e 87 bc 3e 63 bd bb 1f fa 80 3d 95 2a d2 3b
       -0.016501749 -0.005779653 0.06297707 0.0064137676
000290 19 dd e1 bc 62 6f c6 b8 53 54 a6 3d 3f c5 f5 3c
       -0.027571248 -9.4621224e-05 0.08121552 0.03000128
0002a0 c9 ab 95 3d 21 94 81 3d c3 8a ef 3b 9b 1c 75 3d
       0.07308156 0.063270815 0.007310243 0.059841733
0002b0 4c 82 8b 3d 1e d2 34 bd 35 6d d7 3d fa 93 8c 3d
       0.068119615 -0.044145696 0.105188765 0.06864162
0002c0 5e a6 d8 bc f8 da 83 3d d1 80 eb 3b 33 86 94 bc
       -0.026446518 0.06438249 0.007186987 -0.018130397
0002d0 d6 5e 0d bc c2 58 a1 3d cc db 0f 3d f4 7f be 3d
       -0.008628568 0.07878257 0.035121724 0.09301749
0002e0 f9 d6 6b 3c 43 81 07 3c 51 df 0c 3d e0 11 b7 bc
       0.014394515 0.0082705645 0.03439266 -0.02234739
0002f0 81 00 5e bd 32 bf 6a bc 72 fa 00 3c 0a 49 11 3c
       -0.0541997 -0.014327811 0.007872211 0.0088675115
000300 c3 3a 76 3d 46 01 54 bd 23 36 59 bc a1 87 2d 3c
       0.060114633 -0.051759027 -0.013257536 0.0105914185
000310 b4 0d 6b bd 5f 1b ab 3c 57 ff a5 bd ee 13 f0 bc
       -0.057386115 0.020887075 -0.08105343 -0.029306378
000320 29 5e 3b bc 26 4a 08 bd 6a ec 47 be 18 23 dc bd
       -0.011436024 -0.03327384 -0.19523779 -0.10748881
000330 d3 fd 61 bd 05 5a e7 bd 6c b3 6f bd f6 ea 75 bc
       -0.055173706 -0.11296467 -0.05852072 -0.015009632
000340 1c d3 af ba 0f 35 6c 3d a5 ff c7 3c fa 79 40 bd
       -0.0013414356 0.057667788 0.024413893 -0.046991326
000350 99 e5 ee 3c bc e5 5e bd 13 cb 4b bc aa f9 65 bb
       0.029162215 -0.05441831 -0.012438553 -0.0035091438
000360 fe 98 bf bc 89 5a 42 bd 01 7c 87 ba 4c 1b 0c bd
       -0.023388382 -0.047449622 -0.0010336639 -0.03420572
000370 89 eb 85 bc 22 d9 86 3d ed c7 3f 3d 3d ba d7 ba
       -0.016347663 0.065843835 0.046821523 -0.0016458702
000380 49 c4 92 bd 82 bd 33 3c 63 b4 2e bd 5b 2f 00 3d
       -0.07166345 0.010970475 -0.0426525 0.03129516
000390 a6 5f b4 3d 3e b8 d7 3c 1a 53 13 bd d3 c6 60 3d
       0.08807306 0.02633297 -0.035967924 0.054877114
0003a0 1c 14 80 3c ed cf c9 3b 10 07 d2 3d 35 f2 c1 bc
       0.015634589 0.00615882 0.10255253 -0.023675064
0003b0 7f e6 3f 3c 4d d6 ef bc ab b7 8d bd 15 df 48 bd
       0.011712669 -0.029276991 -0.069197975 -0.049040873
0003c0 7e 59 24 3d 4c db 2d 3d a4 02 59 bd b2 aa 83 3d
       0.04012441 0.042445466 -0.052981034 0.06429042
0003d0 9b 3f fb 3c 98 b3 11 bd 56 8b 77 bc 56 6d d4 3c
       0.030669978 -0.035571665 -0.015108904 0.025931042
0003e0 55 6c f4 bc 1a d8 00 3d bb 78 b9 3c a4 74 30 bd
       -0.029836813 0.03145609 0.022640577 -0.043079987
0003f0 cc 0d ce bb 51 a4 80 3d 25 d9 9b 3c 96 ea d7 37
       -0.006288266 0.06281341 0.019024441 2.5739235e-05

model.3.bias f4 [32]
000000 7b 92 1d 3c 6d 15 b9 3c f0 67 ad 3b ab 27 6a 3d
       0.009617443 0.022593224 0.0052919313 0.057166737
000010 43 d8 37 bd 6f 74 64 3d 1e 66 e4 bd 58 7f e5 bd
       -0.044883978 0.055775102 -0.1115229 -0.112059295
000020 13 56 03 bb b0 af 8e 3b 8c 7b 9a 3c fd da 72 3d
       -0.0020040318 0.0043544397 0.01885774 0.059290875
000030 50 ef a8 bc ae f6 a8 bc b8 a3 09 3d 98 04 d1 bb
       -0.020621926 -0.020625439 0.0336034 -0.0063787214
000040 df 90 7d 39 94 d4 8d bc 6f 61 e2 3c 44 52 a0 bd
       0.00024181929 -0.01731328 0.02763435 -0.07828191
000050 04 43 99 3b df 49 5b 3d 66 af 85 3b 24 dd 0e 3c
       0.0046771783 0.053537246 0.004079747 0.008719716
000060 77 8a c7 bb a8 36 8f 3d c9 9d 0b bd 3b ce c9 3b
       -0.0060895043 0.06992847 -0.034086023 0.006158618
000070 a3 8c 57 3d c4 fb fd bc 74 16 c7 bb b4 4c 3a bd
       0.052624356 -0.03100384 -0.0060756747 -0.045483306

model.6.weight f4 [32]
000000 21 a7 7a 3f 8d f7 77 3f 16 4f 80 3f 24 76 82 3f
       0.9791127 0.9686211 1.0024135 1.0192304
000010 42 b0 7e 3f 83 e5 74 3f f6 0e 89 3f 69 c9 81 3f
       0.994877 0.9566271 1.0707691 1.013959
000020 19 21 8c 3f c7 02 84 3f e3 f3 80 3f 46 e9 7e 3f
       1.0947601 1.0313348 1.0074428 0.99574697
000030 f2 f6 82 3f 4d 08 7c 3f 41 8b 83 3f c4 9c 86 3f
       1.0231612 0.98450166 1.0276872 1.0516591
000040 dd 95 86 3f ad 0e 83 3f a3 d1 80 3f 0c 9f 7f 3f
       1.0514485 1.0238854 1.0063976 0.9985206
000050 17 0a 88 3f 9d 7b 8a 3f 43 01 82 3f c5 b3 84 3f
       1.0628079 1.0818974 1.0156635 1.0367361
000060 23 a0 81 3f 7b d7 81 3f fd 27 78 3f 82 61 82 3f
       1.0126995 1.0143884 0.9693602 1.0186007
000070 e9 94 80 3f ca 4d 8e 3f 62 d5 7a 3f ed 74 8b 3f
       1.0045444 1.1117489 0.97981846 1.0895058

model.6.bias f4 [32]
000000 fb de 3a be 4a 93 76 be 1f cf 9c 3e 91 ce 34 be
       -0.18249123 -0.24079624 0.3062677 -0.17656924
000010 ba 2e 1b 3e 39 9a f2 bd 27 90 e1 bc 98 54 15 3c
       0.15154544 -0.11845822 -0.027534558 0.009114407
000020 ad ff 06 3e b8 5d ad bd a5 a5 be 3d 7b 95 42 3e
       0.1318347 -0.08465141 0.09308938 0.19002335
000030 29 33 8f bd 40 a6 59 3e c1 d6 bf bc ef d3 17 3e
       -0.0699218 0.21254826 -0.023417832 0.1482694
000040 6e f8 1d be 4d 00 8b be a0 0d 71 be ae f3 2e be
       -0.154268 -0.27148667 -0.23540354 -0.17085144
000050 b2 f1 46 be 28 05 fd bd 85 9e af bc aa d9 16 3e
       -0.19428137 -0.12354499 -0.021437893 0.1473147
000060 aa 22 38 3e 8e 08 22 3e 14 25 ab 3c 1d c8 43 be
       0.17981973 0.15823576 0.020891704 -0.19119306
000070 26 15 c9 bd f8 54 9f 3d d2 ca 85 be 1d c1 35 3e
       -0.09818487 0.077798784 -0.26131302 0.17749448

model.6.running_mean f4 [32]
000000 e8 2b 54 3e 49 8f 8c 3e 85 7c 9a 3e b5 f6 f2 3e
       0.20719874 0.27453068 0.30173126 0.47453848
000010 2c 38 df 3e 87 22 ae 3e ad ed 81 3e c3 99 21 3e
       0.43597543 0.34010717 0.25376645 0.15781312
000020 a8 d6 08 3d a0 aa 1d 3f 15 22 3a 3f 05 60 a7 3e
       0.033407837 0.6158848 0.72708255 0.32690445
000030 80 ff 10 3f c9 5c cd 3e 28 9a ec 3e 0d 20 d3 3d
       0.5663986 0.40109852 0.46211362 0.103088476
000040 ed 46 6c 3e b9 71 48 3e a2 72 d1 3e db c1 84 3e
       0.23073931 0.19574632 0.4090777 0.2592915
000050 34 26 16 3e 4f 67 81 3f bc 4c 09 3f 5d 1c fd 3d
       0.14663011 1.0109652 0.5363271 0.123589255
000060 89 ee 17 3f 06 02 cd 3e 37 44 00 3e 6d a1 99 3e
       0.5934835 0.40040606 0.12526022 0.3000597
000070 f5 48 3f 3e b1 a8 87 3d 7c 6f e3 3e 38 00 84 3d
       0.18680175 0.06623972 0.44420993 0.06445354

model.6.running_var f4 [32]
000000 4e 4d 4e 3d af 01 61 3d 72 90 d4 3d 01 82 d6 3e
       0.050366692 0.054933246 0.10379113 0.4189606
000010 f4 70 9a 3e 19 2f ab 3d 2e da c3 3d 6f 93 55 3d
       0.301643 0.083585925 0.09563099 0.052142557
000020 b2 43 f2 3b 04 a0 ad 3e 63 f7 e6 3e 10 72 22 3e
       0.007393324 0.33911145 0.45110616 0.15863824
000030 4d ca b0 3e d5 66 35 3e 14 3d d9 3e 44 29 ca 3c
       0.34529343 0.17715009 0.4242941 0.02467788
000040 16 81 e8 3d 14 9d 9e 3d 83 15 bd 3e e4 42 1f 3e
       0.11352746 0.07744804 0.36930475 0.1555286
000050 2f 33 15 3d 13 7a 92 3f 15 ea f1 3e f5 59 1e 3d
       0.036425766 1.1443504 0.47248903 0.03866001
000060 46 89 a4 3e a8 eb 20 3e 47 96 c3 3c 66 b7 81 3d
       0.3213598 0.15714896 0.023875369 0.063338086
000070 bc 3f 88 3d dc 01 01 3d 8f 9b 25 3e 9e 85 18 3d
       0.06652781 0.031495914 0.16172622 0.037236802

model.7.weight f4 [64, 32, 3, 3]
000000 3a a7 5e 3b 0f bf 3d 39 db 42 cd bb 4a 89 83 3c
       0.0033974187 0.0001809562 -0.0062640733 0.016056675
000010 d9 cc 9c 3a ca c8 ff 3c 98 4a 14 bc 61 39 1f 3d
       0.0011962905 0.031223673 -0.009050988 0.03887308
000020 0e fa 30 bc b7 fe 15 bd 17 c2 89 3a 9d 92 34 3d
       -0.010801805 -0.036619868 0.0010510114 0.044085134
000030 e3 86 03 bc 9a a7 68 3c 44 67 da 3c fc e2 d6 bc
       -0.008027765 0.014200116 0.026660569 -0.026231281
000040 01 e5 1e 3c 94 85 08 bd 42 7e 36 bd be 9a db 3c
       0.0096981535 -0.033330515 -0.044554003 0.026807185
000050 0d 17 85 3d 7c aa 3d 38 25 4d 60 3d 0e a3 e0 3c
       0.06498537 4.5219887e-05 0.05476107 0.0274215
000060 af e9 97 3b 9e b6 be 3c d7 bb 94 3d 0d 24 78 bd
       0.0046360116 0.023280438 0.0726239 -0.060581256
000070 ab 12 48 3d 4a 67 07 3d 7c 3f ac bd 90 a8 a0 bc
       0.04884593 0.03305749 -0.08410546 -0.019611627
000080 aa cf db bc 99 3c 0f be a3 9a e0 3b 3e 53 24 3d
       -0.02683242 -0.1398796 0.0068543716 0.04011845
000090 df 48 f9 bc 82 55 88 3d 90 04 8f 3d 51 6b 2b bd
       -0.030430255 0.06656934 0.06983292 -0.04185039
0000a0 47 24 1a bd 93 a8 c1 bc da 99 00 be 22 58 0d bc
       -0.037632253 -0.023639953 -0.1255869 -0.0086269695
0000b0 20 1a 86 3b 72 9f f7 bc 7a 17 d4 3a d1 53 e8 3a
       0.00409247 -0.030227397 0.0016181313 0.0017725175
0000c0 d7 7f 19 3c f4 c1 8a 3d 15 ee 12 3d 1b f7 68 3c
       0.009368858 0.06775275 0.035871584 0.014219071
0000d0 b4 7c 43 bc d6 91 26 3c 8d 19 0c bd 03 6e 4f 3c
       -0.011931587 0.010166606 -0.034204055 0.012660506
0000e0 42 bf 26 3a 08 df 2c 3c 8c a4 59 3d 0a 08 6f 3d
       0.0006360897 0.010551222 0.05313544 0.058357276
0000f0 84 26 19 3c 2f 89 b8 3d f0 1c 33 3c c2 fe 34 bd
       0.009347562 0.09010541 0.010932192 -0.04418827
000100 e9 78 25 3d 0b 12 2a bc d8 f4 22 3d 30 93 e1 3c
       0.040398512 -0.010380278 0.039784282 0.027536005
000110 30 67 94 3c 21 ca c6 3c 6d be fd 3d 4a ed 87 3d
       0.01811561 0.024266304 0.123898365 0.06637056
000120 15 2e 60 bc e8 48 01 3d 59 cb 5c 3d ae c0 6a bd
       -0.013682862 0.03156367 0.053904865 -0.05731266
000130 e7 39 6c 3b 1e 3e 7a 3d 54 c5 9e bd 63 f6 01 bd
       0.0036045255 0.061094396 -0.07752481 -0.031729113
000140 3f c8 ef 3c 93 40 17 bd d5 8b ae 3c d5 fb 7c 3d
       0.02927029 -0.036926817 0.021306911 0.061763603
000150 7d ea a5 bc ce 64 4c bb 4e 47 11 3d c9 92 ae 3c
       -0.020253414 -0.0031188014 0.035468392 0.021310227
000160 cc 51 ed 3a 1c 0c 0f 3d 32 fa 8f bd d4 65 10 bb
       0.0018106042 0.034923658 -0.07030143 -0.002203335
000170 8f 96 1d 3d 58 8e e6 bc 9a 4c ca 3c 08 a4 75 3d
       0.038473662 -0.028144047 0.02469473 0.059970886
000180 71 ed 0f 3d 0b 91 90 bc 03 54 17 bd 40 c6 0e bb
       0.03513855 -0.017647287 -0.036945354 -0.0021785647
000190 8e fb b6 3c 42 d4 27 3d e7 a0 90 bd 68 2e 7a bd
       0.022336747 0.04097391 -0.0706194 -0.061079413
0001a0 6e fb c4 3c 3d 34 ac bd 8e 8f 8b bd 7b a4 16 3c
       0.024045672 -0.08408401 -0.0681449 0.009194489
0001b0 c6 30 9c bd ca aa 0d bd 49 07 78 bc 8e 4a b6 3c
       -0.0762649 -0.034586705 -0.015138456 0.022252347
0001c0 d5 b7 96 bc f5 58 ec 3c db 70 14 bc 7b cd 9c 3d
       -0.018398205 0.028851012 -0.00906011 0.0765638
0001d0 8a e8 ea 3c 24 0a e9 bc ce 7c 1f 3c b1 de 99 3d
       0.028675336 -0.028447218 0.009734346 0.07513178
0001e0 25 ae 58 bd 94 cc 53 3d b9 8a 33 3d bf 58 12 bd
       -0.052900452 0.051708773 0.043833468 -0.035729166
0001f0 2f 0c a1 3d 45 c0 ae 3c 4e 30 91 bd aa 71 52 3d
       0.07863652 0.021331916 -0.070892915 0.05137793
000200 9c b0 9c 3d 91 49 48 bd 63 d7 04 bd 3e e7 2e bd
       0.07650873 -0.048898283 -0.03243197 -0.042701
000210 c8 6e 1f be 47 f7 0b bd 28 50 a2 bc 71 49 13 bd
       -0.15569603 -0.03417137 -0.019813612 -0.03595871
000220 ae 5e a8 3d 43 13 a1 3d 3f 2a f2 bd 02 fe 07 3d
       0.08221184 0.07865002 -0.11824464 0.033201225
000230 79 86 88 3d 6e c3 82 bd 21 2b 1d bd 83 1e 29 bc
       0.066662736 -0.063849315 -0.03837121 -0.010322216
000240 4d fc 59 bd ef ac db 3d 1d d3 95 3d 46 7d c6 bc
       -0.05321913 0.10726344 0.07315657 -0.024229657
000250 4d 35 04 3e c4 a2 f4 3d e7 88 83 3c 40 eb b9 3d
       0.12910958 0.119451076 0.016056491 0.090780735
000260 fd 9b 99 3d e9 f5 2b bd d2 85 af 3c 34 ba 01 3d
       0.075004555 -0.041982565 0.021426115 0.031671718
000270 4b a5 8e bd 68 d6 35 3d 17 04 93 bc 47 df ff bd
       -0.06965121 0.044393927 -0.017946286 -0.12493759
000280 2d 9f 0d bd d3 ea 6e 3d e5 35 7e bc 4f e1 c5 3d
       -0.03457563 0.058329415 -0.015515779 0.09662115
000290 63 cd 7a 3d db 20 ca bd 83 ef 1a bd bd a9 db bc
       0.06123103 -0.09869548 -0.037826072 -0.026814336
0002a0 5b a4 7f bd 37 72 57 bd 85 2d e3 bb 20 63 a9 bd
       -0.0624126 -0.05259916 -0.0069329166 -0.0827086
0002b0 66 2d 06 bc ac ac 01 3c 8c 04 c7 bd c7 03 09 bd
       -0.008189535 0.007914703 -0.09717664 -0.033450868
0002c0 be cf e6 3c d5 2a 5c bd 6b 6b 88 bc 22 28 9b 3d
       0.028175231 -0.053751785 -0.016652783 0.07576014
0002d0 a3 b6 95 bc 6a 47 3a 3c 30 5a 44 3d a5 68 86 bd
       -0.018275565 0.0113695655 0.047937572 -0.06562928
0002e0 ea 38 87 bd 6f 8e 38 bd e7 3b d6 bd 8b 6a 5f bd
       -0.06602652 -0.04505771 -0.10460644 -0.054544967
0002f0 10 40 4f bd e9 ff c8 bc da ee 2e bc a4 1c 4e bd
       -0.050598204 -0.02453609 -0.010677064 -0.050320283
000300 6a e6 f1 3c fe f5 97 3d ac 19 82 bb 3a 89 d8 3c
       0.029528815 0.07419966 -0.0039703455 0.026432622
000310 19 5d b1 bc 6b 57 90 3c 7e e8 2a bd 3f 49 23 3d
       -0.021650838 0.01761981 -0.041725628 0.039864775
000320 c5 51 4c 3d a3 eb 1c be 82 4e 04 bd 75 a0 96 3c
       0.04988267 -0.15324263 -0.032301433 0.018387059
000330 3f c2 0b be 46 e9 92 bd 7a be 37 3c 13 9f d5 3c
       -0.13648318 -0.071733996 0.011214847 0.026076829
000340 ca 92 29 3d 90 5e 68 3c 49 41 5e bd d8 b7 81 3d
       0.041399755 0.014182702 -0.05426148 0.063338935
000350 36 a7 da 3d bc a7 ef bc d0 27 06 3d 05 eb 33 3d
       0.10676424 -0.029254787 0.032752812 0.043925304
000360 4d dc 72 bd 16 73 30 3c 20 c8 08 3b 0e bf 16 ba
       -0.059292126 0.010769626 0.0020871237 -0.0005750515
000370 c2 40 6b 3d dd c0 7c 3c 1c 9f a5 3b c4 6c f7 b9
       0.057434805 0.015426842 0.0050543677 -0.00047192548
000380 80 af 0c 3c b5 5e 36 bc 50 f0 f1 bc dc 8c 50 3c
       0.008586764 -0.011130978 -0.029533535 0.012728896
000390 e9 0a 70 bc bb 74 72 3d b0 f2 89 bb a5 8f f4 3c
       -0.014651039 0.059193354 -0.004209839 0.029853651
0003a0 d2 9d 88 3d a9 60 87 3c 50 a7 5b bd c0 1f f9 3c
       0.06670727 0.016525583 -0.05362636 0.030410647
0003b0 99 1a 3c 3d 50 6b 30 bd 3e a7 7b 3d b5 ec 2b 3d
       0.045923803 -0.04307109 0.06143879 0.04197379
0003c0 71 05 2d 3b 74 3a 51 3d 56 7a 8c 3d 3b ff ab 3b
       0.0026400948 0.051081136 0.06859271 0.0052489317
0003d0 54 b7 ad 3c bf c6 c8 3c 8a 16 46 bd 0c 02 8d bc
       0.021205582 0.024508832 -0.04836134 -0.01721289
0003e0 cc 6f 5d 3d 07 b4 71 bc 46 df 02 bd c5 6b 97 3c
       0.054061696 -0.0147523945 -0.03195121 0.018484006
0003f0 03 76 38 bd 3a dd 41 3d 81 bd b9 3c 04 49 d8 bd
       -0.04503442 0.04733012 0.02267337 -0.105608016

model.7.bias f4 [64]
000000 71 79 da 3c a5 75 9c 3d 44 c2 fd 3d 3d 46 b8 3d
       0.026669236 0.076396264 0.12390569 0.08997772
000010 01 d3 f3 3d d0 2e 99 3d 0b a1 cc 3d 51 f1 c2 3d
       0.1190548 0.07479632 0.09991654 0.09518684
000020 bb 61 09 3e d9 1b 0f 3e 4f d2 2e 3d 44 43 a8 bb
       0.13416187 0.13975467 0.042681035 -0.005134972
000030 a2 8d 39 3e 36 9c 69 3d 7d e4 05 3b 6f 2b 95 3d
       0.18120435 0.05703374 0.002043038 0.07283675
000040 b4 f8 b4 3d 7a ab 52 3d 75 1e c9 3d 42 0b 00 3e
       0.08836499 0.051433064 0.09820262 0.12504295
000050 4a a0 1f 3d 0b 83 35 3d 58 94 95 3d 67 14 bf 3d
       0.038971223 0.044314425 0.07303685 0.09330063
000060 48 b2 28 3d 1a b0 be 3d 39 e1 ad 3d 3f 85 08 3e
       0.041185647 0.093109325 0.084902234 0.1333208
000070 3c e0 15 3e 20 e8 da 3c e3 4c ce 3d f9 fd 84 3c
       0.1463632 0.026722014 0.10073259 0.016234385
000080 39 a5 db 3b 04 1f 3d 3c 17 3c e5 3d bb aa e2 3d
       0.0067030457 0.011543039 0.11193102 0.110677205
000090 8a cc 6e 3d 55 a1 12 3e 8c 93 03 3e 58 91 ca 3d
       0.058300532 0.14319356 0.12849253 0.09891003
0000a0 47 1e a4 3d 98 bf fe 3d a3 be 83 3d 2f 87 55 3d
       0.080135874 0.12438887 0.064328454 0.052130874
0000b0 81 a4 40 3d ef 94 d1 3d 02 b8 dc 3c 8b f2 e3 3d
       0.047031883 0.10233485 0.02694321 0.11130246
0000c0 f7 3d 06 3e 12 02 85 3d 7e bf e6 3d 65 2a 0f 3e
       0.13109575 0.064945355 0.11266993 0.13981016
0000d0 05 c7 24 3d 6b b4 57 3d 2a 91 99 3d 1f 82 0b 3d
       0.040228862 0.052662294 0.07498391 0.03405964
0000e0 68 58 6a 3d 65 26 b6 3c e6 a0 ee 3d 25 f0 f6 3d
       0.057213217 0.022235105 0.11651783 0.12057523
0000f0 ce 15 4e 3d 55 3d 8c 3d e1 fa f3 3d 47 4e c2 3b
       0.050313763 0.06847636 0.11913086 0.0059297415

model.10.weight f4 [64]
000000 0d 7a 89 3f 5e eb 82 3f c8 97 7b 3f 8f cb 7b 3f
       1.0740372 1.0228078 0.98278475 0.9835748
000010 05 50 89 3f f2 ff 8f 3f 89 44 8d 3f a5 d6 84 3f
       1.0727545 1.1249983 1.103654 1.0378004
000020 05 78 86 3f 27 ac 86 3f e4 a7 8a 3f e7 4b 8e 3f
       1.0505377 1.0521287 1.0832486 1.1116914
000030 88 a4 7a 3f aa 59 85 3f ec c7 90 3f e4 b9 8c 3f
       0.97907305 1.0417988 1.1311011 1.0994229
000040 92 84 91 3f 65 71 88 3f f8 02 80 3f 7a d5 71 3f
       1.1368582 1.0659605 1.0000906 0.94466364
000050 21 27 8a 3f 35 e9 7e 3f 41 4a 85 3f ed ab 96 3f
       1.0793191 0.99574596 1.0413285 1.1771218
000060 6b 80 81 3f 09 30 82 3f 68 93 80 3f b7 f4 80 3f
       1.0117315 1.0170909 1.0044985 1.0074681
000070 6c a5 87 3f 67 b2 89 3f 2b 3e 80 3f cf 8d 89 3f
       1.0597358 1.0757569 1.0018972 1.0746402
000080 65 24 8b 3f 4f 7d 89 3f e4 7e 82 3f 37 c7 86 3f
       1.0870482 1.0741366 1.0194974 1.0529546
000090 d0 a9 82 3f b1 0c 82 3f 5f b3 80 3f 1f 4d 7f 3f
       1.0208073 1.0160123 1.005474 0.9972705
0000a0 43 4c 8a 3f fe 5d 82 3f 5b 39 97 3f 01 35 8b 3f
       1.0804523 1.0184934 1.1814378 1.087555
0000b0 25 0f 8c 3f 87 4c 7d 3f 4c 3b 93 3f 9f cc 83 3f
       1.0942122 0.98944896 1.1502471 1.029682
0000c0 03 a8 8a 3f 1b 24 7e 3f 87 ec 7e 3f 19 42 86 3f
       1.0832523 0.9927384 0.9957966 1.0488921
0000d0 6d ee 8f 3f 5b 2b 8e 3f 0b 30 84 3f 81 4a 74 3f
       1.1244637 1.1106981 1.0327162 0.95426184
0000e0 3f a0 8f 3f 5d 0b 8a 3f e5 d5 7c 3f a8 06 89 3f
       1.1220778 1.0784718 0.9876388 1.0705156
0000f0 eb cc 87 3f af 8a 8a 3f 93 98 82 3f 2c 68 8a 3f
       1.0609411 1.0823573 1.0202812 1.0813041

model.10.bias f4 [64]
000000 6b 04 88 be 27 a7 a3 bd ac 5a 96 be ed 18 62 be
       -0.2656587 -0.07990866 -0.29366052 -0.22079821
000010 ac 68 bd bd 71 c2 c6 bd be 85 34 be 96 62 9b 3b
       -0.0924848 -0.097050555 -0.17629144 0.004741977
000020 e1 97 2c be ad c3 ac 3d 25 96 c1 bd 13 8a 09 be
       -0.16854812 0.0843576 -0.09452466 -0.13431577
000030 fb 5d a9 be be 96 41 be 92 f4 6e be 2f d6 08 be
       -0.33079514 -0.1890516 -0.23335484 -0.13362955
000040 ee 54 39 be 58 3f 65 3e c2 1e 74 be 6b b2 b3 3e
       -0.18098804 0.22387445 -0.23839858 0.3509706
000050 74 ed 32 bd f8 9d 9e bd 7f d6 29 be 78 32 61 be
       -0.043683484 -0.07744974 -0.1658573 -0.21991909
000060 04 3c 6c 3e 6f 50 9b 3d 7d 7d 99 be 96 2f 7c be
       0.23069769 0.07583701 -0.29978552 -0.24627528
000070 b2 72 80 be a1 f7 a6 be 2b fc 5f be 2b 67 02 bd
       -0.25087506 -0.326108 -0.21873538 -0.03183667
000080 4e 8a 97 bd 89 84 6b be 20 c2 96 be 5d 2c 03 3e
       -0.073994264 -0.22999777 -0.2944498 0.12809892
000090 ba f2 bc 3e b8 2a 21 be a7 c2 25 be 92 d0 86 be
       0.36903936 -0.15738952 -0.16187535 -0.26331002
0000a0 a4 1e 6b be d3 08 9b be 79 a0 e2 bd 22 c7 78 be
       -0.22960907 -0.3028017 -0.11065764 -0.24294713
0000b0 e9 de 87 be 21 25 c6 3e f4 0a 98 bd 32 76 88 be
       -0.26537254 0.38700202 -0.07423964 -0.26652676
0000c0 d3 14 3d be 7e df a7 3e fe 00 04 3e 1c 3a 0b be
       -0.18464975 0.32787699 0.12891003 -0.13596386
0000d0 13 cb 1e be be f1 c3 bd 64 c4 23 3a 19 5c 31 be
       -0.15507154 -0.09567593 0.0006247221 -0.17320289
0000e0 05 3f 5f be c3 b7 22 be 6f 6f 93 be b1 53 61 be
       -0.21801384 -0.15890412 -0.28795955 -0.22004582
0000f0 ab 79 32 be a9 f7 18 bd eb 57 dd bd 8d 16 13 be
       -0.17429225 -0.037345562 -0.10807785 -0.14364071

model.10.running_mean f4 [64]
000000 0e 98 05 3f 46 4e 62 3e c6 a4 19 3f 29 e5 f0 3e
       0.5218514 0.22100171 0.6001705 0.47049835
000010 c2 2d 77 3e 4e 21 30 3e 63 3c 28 3e c9 f2 39 3e
       0.24138549 0.17200205 0.16429286 0.18159021
000020 8d 7c 63 3f 61 b2 5e 3e bb da ac 3d 28 a0 ea 3d
       0.88861924 0.21747734 0.08440157 0.11456329
000030 69 28 5d 3f 6f 17 52 3e 4f 62 26 3e 92 ec 36 3e
       0.86389786 0.20516752 0.16248439 0.17863682
000040 08 db 20 3e f4 64 39 3e ba 16 7e 3e f7 63 39 3e
       0.15708554 0.18104917 0.24813357 0.1810454
000050 71 f2 b9 3d b9 f8 30 3f 60 fd 57 3e 27 95 e8 3d
       0.09079445 0.6912952 0.21092749 0.113565736
000060 38 d0 1e 3e fe cb a0 3e 0d 88 34 3f 08 ca 26 3f
       0.15509117 0.31405634 0.70520097 0.65152025
000070 79 e9 0c 3f c5 c6 a6 3e f4 58 31 3e a2 a5 79 3f
       0.5504375 0.32573524 0.17319089 0.9751836
000080 ee b7 6a 3e a5 cb fb 3d 38 66 f8 3e 23 52 c5 3e
       0.22921726 0.122947015 0.48515487 0.38539228
000090 86 53 ab 3e c1 e2 3b 3e 55 b5 28 3e bc 42 4e 3f
       0.3346216 0.18348219 0.16475423 0.8057058
0000a0 a3 65 09 3e bd fa 95 3f 17 4b 28 3e 33 d7 1c 3e
       0.13417678 1.1717144 0.16434895 0.15316467
0000b0 c7 54 85 3e de b6 a2 3e 3a ea 9f 3d 72 ba f7 3e
       0.26041242 0.31780142 0.07808347 0.48384434
0000c0 4c e2 3f 3e fb 92 eb 3e d1 60 5f 3e 36 87 44 3e
       0.18738669 0.46010575 0.21814276 0.19192204
0000d0 35 b8 10 3e d1 71 59 3e 96 a7 60 3f bd f7 21 3f
       0.1413277 0.21234824 0.87755716 0.63268644
0000e0 28 44 2e 3e b0 98 2f 3e ea a8 23 3f cb 1a 75 3e
       0.17018187 0.1714809 0.6392962 0.23936002
0000f0 ca cd ec 3d 21 44 dd 3d 85 4f 96 3e f9 88 78 3e
       0.11562689 0.1080401 0.29357544 0.24271001

model.10.running_var f4 [64]
000000 dd 67 51 3f ab 39 87 3e a8 13 d1 3e f0 61 64 3e
       0.8179911 0.26411185 0.4083531 0.22302985
000010 09 d7 e3 3d ac b9 fd 3d 2e f0 d5 3d f8 a5 c7 3d
       0.11124999 0.1238893 0.10446201 0.09748453
000020 d6 ab a4 3f 04 dc b7 3d 36 68 35 3d b8 54 d8 3d
       1.286494 0.089775115 0.044288836 0.10563034
000030 d3 f3 1a 3f b5 57 00 3e 7d f6 f6 3d 22 e0 5a 3e
       0.60528296 0.12533458 0.12058733 0.21374562
000040 4d 64 a8 3d 6e 03 0a 3e 63 ec f4 3d d4 a8 3f 3d
       0.08222256 0.13477871 0.1195915 0.046791866
000050 78 c7 0f 3d ee 38 ac 3e 01 e3 25 3e b0 c7 bf 3d
       0.035102338 0.33637184 0.16199876 0.09364259
000060 90 91 84 3d 99 40 1c 3e a1 81 09 3f dd 6c d8 3e
       0.06473076 0.15259017 0.53713423 0.42270556
000070 33 a5 15 3f 79 e2 99 3f ec 18 c6 3d 27 a6 59 40
       0.584552 1.2022239 0.09672722 3.4007661
000080 28 b3 9d 3e 99 f2 a9 3d 44 57 8a 3e f8 cf 05 3f
       0.30800748 0.08298225 0.27019703 0.5227046
000090 c8 85 81 3e 3c 97 a9 3d 52 04 b3 3d 24 70 ea 3e
       0.2529738 0.08280799 0.087410584 0.45788682
0000a0 9e 3a 16 3d 3c 4d ba 3f 08 b0 dc 3d ca 94 a8 3d
       0.036676995 1.455482 0.10775763 0.08231504
0000b0 09 d4 84 3e 72 50 ed 3d 98 57 f6 3c 0f ee a4 3e
       0.2594302 0.11587609 0.030071065 0.32212874
0000c0 35 9d 67 3e 4b 24 3f 3e 3e 39 dc 3d cf 02 a4 3d
       0.22618563 0.18666188 0.107531056 0.08008348
0000d0 2b de d0 3d ee fc 0b 3e 95 f2 af 3f 9a 4e a6 3e
       0.10198625 0.13670704 1.3745905 0.32481843
0000e0 b8 c1 fc 3d 4c ee e4 3d 03 92 c0 3e 01 6b 69 3e
       0.123416364 0.11178264 0.37611398 0.22794725
0000f0 00 9b 65 3d 37 5b 66 3d e5 fe 8c 3e 29 f5 68 3e
       0.056056023 0.056239333 0.2753822 0.22749771

model.11.weight f4 [128, 64, 3, 3]
000000 4a 1f 65 3d 6c 26 15 3d ca ea 59 3c d6 3f 6a 3d
       0.055938043 0.036413595 0.013300607 0.057189785
000010 d6 5f a0 bb 54 52 2b 3c a0 09 29 3c ec 4f 27 bc
       -0.004894237 0.01045664 0.010317236 -0.010211926
000020 e6 f2 dd bc f3 c7 01 bd 1d 5d 38 bd 97 1a fe bc
       -0.027093362 -0.031684827 -0.045010675 -0.031018538
000030 73 25 0e bc a6 66 80 3b f7 61 1d 3a ac 14 a0 3b
       -0.008675921 0.0039184866 0.00060036726 0.004885277
000040 a5 39 9f bc 8a 7e 72 bc 8f 4c 7a 3c b2 54 cd bb
       -0.019436667 -0.014800677 0.015277042 -0.0062662
000050 fb c6 3e ba 5b a2 8e 3c 33 e5 44 bd 63 d0 d7 3c
       -0.0007277575 0.017411401 -0.048070144 0.026344484
000060 25 40 94 3d 92 1f 11 3d de 40 29 bd d3 a9 68 bd
       0.07238797 0.0354305 -0.041321628 -0.056802582
000070 6a 4e 94 bc e3 55 26 bc 5f a8 44 bd 1b d2 59 bd
       -0.018103797 -0.010152313 -0.048012134 -0.053178888
000080 02 77 b3 bc 72 7d 1d bd e9 8d 2e 3d e5 24 04 bd
       -0.021907333 -0.038449712 0.042615805 -0.032261748
000090 04 ee 7e bc d9 d1 de bc 1d 75 6f bd ad 94 1c 3d
       -0.015559677 -0.027199673 -0.058461297 0.038227726
0000a0 36 17 49 3c 44 ef a4 bc e2 eb 65 3d a2 bd e3 3c
       0.0122736 -0.020133622 0.05613316 0.027800385
0000b0 09 c8 bc 3c e1 3f ca ba 35 73 66 3a 2d be 08 bd
       0.023044603 -0.0015430414 0.0008790971 -0.03338449
0000c0 c5 74 99 3c 2b 0b 27 bc d0 5f 17 bd 13 4b 71 3d
       0.018732438 -0.010195534 -0.03695661 0.058909487
0000d0 c4 48 82 b9 96 fe 73 3b 16 5b c8 3b bd 64 90 bb
       -0.00024849747 0.0037230602 0.006114374 -0.00440654
0000e0 77 30 69 bd 25 3d 95 3d 4c d7 b8 3c c1 56 75 bc
       -0.056930985 0.07287053 0.022563599 -0.014974297
0000f0 ba b8 c0 3d 70 f5 08 3d 7f 5a a0 3c 42 e2 12 3c
       0.09410234 0.033437192 0.019574402 0.008965077
000100 10 ea 5c bd d5 74 0f 3c 38 32 95 bc b2 39 9a 3c
       -0.053934157 0.008755882 -0.018212423 0.01882634
000110 21 b1 f1 b8 65 f9 07 bd dc 8b 43 3d d0 a1 97 3c
       -0.00011524768 -0.033196826 0.047740802 0.018509775
000120 ed f5 84 3b 3d c4 90 3c 63 9e 07 bd 81 28 79 bc
       0.004057637 0.017671699 -0.033110034 -0.015207411
000130 17 0b d4 ba a2 4a 95 bd dd 6c c0 bc 31 7a 91 bd
       -0.0016177621 -0.07289626 -0.02348941 -0.07103384
000140 9b 5a 88 bd aa ab 5b bb 21 3d 54 bd 90 b3 0a bd
       -0.066579066 -0.0033519068 -0.05181611 -0.03386265
000150 b7 90 ee 3c 00 06 53 bd 5f bc 44 bc ee 74 68 3d
       0.02912174 -0.051519394 -0.012007802 0.056752138
000160 9c a8 49 3d 29 6b f1 3c 73 5f fe bc be 91 d4 3c
       0.049233064 0.029470043 -0.031051373 0.025948402
000170 e1 26 d6 ba 59 26 2d 3c 1b e8 f0 bc 8b c2 31 3c
       -0.0016338491 0.010568225 -0.029407552 0.010849605
000180 14 a1 0f bd 14 0b 65 bc ca 2d 2c bd 3d e0 22 3c
       -0.035065725 -0.013979692 -0.042035855 0.009941158
000190 16 74 06 3c 40 e7 a7 bc 12 ed 16 bd e9 b5 84 3c
       0.008206388 -0.02049601 -0.03684718 0.016200023
0001a0 7e 2d d9 bc 16 e7 b5 3c d1 61 ce bd 75 d6 92 bd
       -0.02651095 0.022204917 -0.10077251 -0.07169811
0001b0 8a 68 05 3c f0 47 91 3c ca 43 1f bd 7d ee 25 bd
       0.0081426 0.017734498 -0.038883008 -0.040510643
0001c0 1c dd be 3c d9 02 52 bd b2 e9 2b bd bd 07 0f bd
       0.023298793 -0.051272247 -0.041970916 -0.03491949
0001d0 73 37 80 bc bd 32 56 bd 6c f4 15 bd d4 0e 1a bd
       -0.01565144 -0.05229448 -0.036610052 -0.037611797
0001e0 a1 8d ed bc 9f 6f 43 bd 49 8b 58 bd e1 bf 17 bd
       -0.028998198 -0.047713872 -0.052867208 -0.037048224
0001f0 09 58 68 bc 6e 8d 92 bd be 0a 62 bd b6 3e 71 bd
       -0.0141811455 -0.07155882 -0.055186026 -0.058897696
000200 ff 8f f5 3c cc c0 88 bd 43 80 57 bd 02 ea e8 bc
       0.02997589 -0.06677398 -0.052612554 -0.028431896
000210 ca fc a6 3c 4c 01 94 bb 2d 5e a3 bc 12 9d 4b bc
       0.020384211 -0.004516756 -0.019942367 -0.012427585
000220 51 ed 5e bd 82 70 1b bc c5 05 6c 3d 8a e8 46 bc
       -0.05442554 -0.009487273 0.05762269 -0.012140403
000230 f7 8d 22 bd ea 58 78 bc 0b 18 cd bd d5 d2 96 bc
       -0.03968617 -0.0151579175 -0.100143515 -0.01841108
000240 7d c1 37 bd 8c b8 c2 ba c4 c0 ad bb 96 af 9f 3c
       -0.04486226 -0.0014856025 -0.0053025205 0.019492906
000250 da a3 90 3d f3 60 00 3d 4c 36 8c 3d de 2c 46 3c
       0.07062502 0.031342458 0.06846294 0.012095658
000260 61 c9 34 3d dc cb a1 3d 1a 27 f1 bc b0 84 2e bd
       0.044137362 0.07900211 -0.02943759 -0.04260701
000270 f4 71 60 3d 9c c3 39 bd 49 cf 41 bd 01 30 0c 3c
       0.054796174 -0.045352563 -0.047316823 0.008556367
000280 ec 21 0a bd 95 d2 0a bc eb b4 87 bc 95 30 d8 bc
       -0.033723757 -0.008473058 -0.01656576 -0.026390353
000290 54 2c fb 3a 0c dc 1b bd f3 2f 69 bc 83 95 ae bd
       0.0019162991 -0.03805165 -0.014232623 -0.08524611
0002a0 b1 08 28 bd d3 b8 04 ba 34 0f 81 bd 37 7f 9a bc
       -0.041023914 -0.00050629413 -0.06301728 -0.018859489
0002b0 bc 8d 0e 3d 7a 89 48 3d 36 14 48 bc 3f 0e 1a 3c
       0.034803137 0.048959233 -0.01221185 0.009402811
0002c0 22 2a 2b 3c d2 e1 cf 3c 8f 65 0b 3d 64 d9 5e 3c
       0.010447057 0.025376234 0.0340324 0.013601635
0002d0 5c 3f 8c 3c e4 fe 33 3c b4 66 05 bd 65 a8 99 3d
       0.017120056 0.010986064 -0.03256865 0.07502822
0002e0 fd 72 b8 bc 9f 68 30 3c c9 a3 90 3d 47 2c e4 3a
       -0.022515768 0.010767131 0.070624895 0.0017408215
0002f0 cc 17 d6 3c c0 35 b9 3c c3 c6 39 bc 04 d4 3c 3b
       0.026134394 0.022608638 -0.011338892 0.0028812895
000300 9c 52 86 3c f2 50 89 bd c2 2a 46 3d 53 c9 de 3b
       0.016396813 -0.06704892 0.04838062 0.006798902
000310 d6 a2 1b bd c5 93 b8 3c 78 40 71 bc 94 6b af bc
       -0.03799709 0.0225314 -0.014724843 -0.021413602
000320 4d c7 8e 3b c3 bf db 3b 37 f6 a3 bd ac a6 59 3c
       0.0043572546 0.0067062094 -0.08005946 0.013284367
000330 48 2c df bc cd ff 1f 3c cf fb e8 bc b4 95 d4 3b
       -0.027242795 0.0097655775 -0.028440384 0.0064875726
000340 fe 33 85 bc c0 98 a9 bc 38 69 85 3b 83 c7 08 3b
       -0.016260143 -0.02070272 0.004071381 0.0020870871
000350 f5 35 3e 3c 9f fd 6d bd 2a 3d c2 bd ee 0e 57 bd
       0.011609544 -0.0581032 -0.09484322 -0.052504472
000360 ce 08 07 3d 81 b6 b1 3c e1 26 79 bb b1 07 56 3d
       0.03296738 0.02169347 -0.0038017558 0.05225343
000370 06 7e ec bb e1 48 26 3d 08 e8 d9 3c 62 ae d7 3c
       -0.0072171716 0.040596846 0.026599899 0.02632827
000380 87 4f 07 3d e2 1b 0f bd 16 51 89 3a 0d 64 b4 bc
       0.033034828 -0.0349387 0.0010476436 -0.022020364
000390 73 12 31 3b 18 0d 2c bd db 46 cf bc f3 dd b6 3b
       0.0027019053 -0.042004675 -0.025302341 0.0055806576
0003a0 cf a2 2d bd 78 ef 1b bd 6c 6c 53 3c de 64 47 bb
       -0.042391594 -0.038070172 0.012904268 -0.0030425112
0003b0 79 a2 da ba 91 45 16 bd b9 4d 42 bd 2a a9 01 bc
       -0.0016680501 -0.036687437 -0.047437403 -0.007913867
0003c0 31 ba 05 3d a1 26 8a 3b 9c 7c 86 bd 25 d4 34 3d
       0.03264827 0.0042160307 -0.06566736 0.04414763
0003d0 96 a5 ca 3c f0 9d 29 3d 59 ad 50 3d 5d 3e c9 bc
       0.02473716 0.041410387 0.050946567 -0.02456587
0003e0 eb dc 8b 3c 57 95 3e bb b6 3c 23 bb 58 1a 83 bc
       0.017073115 -0.0029080713 -0.0024908013 -0.016003773
0003f0 f1 10 d5 bc 3b 40 f0 bc be b6 0f bd 97 92 6f 3b
       -0.026009055 -0.029327502 -0.035086386 0.003655588

model.11.bias f4 [128]
000000 3b 69 48 3d 92 0a dd 3d b7 44 51 3e ad c0 02 3e
       0.04892848 0.10793032 0.20436369 0.12768812
000010 83 70 9a 3d c5 8c e3 3d 88 90 8e 3d 07 a6 c0 3d
       0.07540991 0.11110834 0.06961161 0.09406667
000020 3b d9 cd 3d d6 20 51 3e 68 d5 8d 3d a0 cc 05 3e
       0.10051199 0.20422682 0.0692547 0.1306634
000030 00 6c b8 3d a6 26 a7 3d 27 16 17 3e 2d dc 60 3e
       0.09004974 0.081616685 0.14754544 0.2195899
000040 a2 29 22 3e 3b d2 d7 3d d9 c8 1a 3e c1 bb 19 3e
       0.15836194 0.10538145 0.1511568 0.15013029
000050 ae 32 ba 3d 0e 6a ab 3d 3f 43 22 3e 39 00 1e 3d
       0.09091698 0.08369838 0.15845965 0.03857443
000060 72 93 aa 3d 73 b7 d3 3d 10 96 01 3d e0 96 15 3e
       0.08328904 0.103377245 0.03163725 0.14608335
000070 6a 07 dd 3d eb 5c 07 3e 39 5b 24 3e 92 38 09 3e
       0.1079243 0.13219039 0.16050424 0.13400486
000080 2c ee af 3d 6d b4 bc 3d 19 8b 83 3d fb e6 67 3b
       0.085903496 0.09214101 0.06423015 0.0035385478
000090 5d b4 ed 3d 32 34 e9 3d e0 11 c7 3d da 81 11 3e
       0.11606667 0.113869086 0.09720206 0.1420969
0000a0 bc 33 cb 3d 8a dd 06 3e fa 0d c5 3d 48 49 08 3e
       0.09921977 0.13170448 0.096218064 0.13309205
0000b0 5e 73 6c 3d bb a9 05 3e c0 2f 5f 3e ff e0 27 3e
       0.05772721 0.13053028 0.21795559 0.16394423
0000c0 1f d3 9d 3d 32 90 03 3e 39 26 0d 3e 02 69 00 3e
       0.07706284 0.12847975 0.13784112 0.12540057
0000d0 a5 e6 5c 3e 9f 0b f7 3d 53 b8 05 3e 72 fd 23 3d
       0.21572359 0.120627634 0.13058595 0.040036626
0000e0 20 c6 00 3e d2 6a 36 3e ad 20 46 3e 70 2a 8a 3d
       0.12575579 0.17814186 0.19348402 0.067463756
0000f0 8b ab 19 3e c8 8f 34 3e 93 22 f3 3d 26 25 37 3e
       0.15006845 0.17632973 0.11871829 0.17885265
000100 9a 37 26 3e ce 75 2b 3e 2f 9c e5 3d f9 ea f2 3d
       0.16232148 0.16744158 0.1121143 0.11861224
000110 5c c7 aa 3b e7 b6 07 3e 42 9f 14 3e de 40 2e 3e
       0.005211754 0.13253365 0.14513877 0.17016932
000120 3f 3a 12 3e d6 2d 43 bc de 34 97 3d fc 24 0d 3e
       0.14280032 -0.011912784 0.073831305 0.1378364
000130 2d fe 19 3e f5 1e c4 3d 17 7a ec 3d 97 be df 3d
       0.15038367 0.09576217 0.11546724 0.10925024
000140 0d 0f 0c 3e 87 17 d5 bc 28 63 39 3e 98 0d 18 3e
       0.13677616 -0.026012195 0.18104231 0.14848936
000150 84 1b ed 3d ed e6 9f 3c e5 c7 99 3d 43 bb 26 3d
       0.11577514 0.019519294 0.0750883 0.04070593
000160 a8 6b 26 3e 26 fa 18 bd 52 ac ba 3d a7 25 ad 3d
       0.16252005 -0.037347935 0.09114899 0.08454447
000170 c8 9a 62 3d 46 43 1a 3e 07 82 33 3d 79 53 a0 3d
       0.055323392 0.15064725 0.043825176 0.07828421
000180 04 b8 40 3e d7 53 07 3d 39 16 ea 3d 28 1a 88 3d
       0.18820196 0.03303894 0.1143002 0.06645614
000190 bc 25 f1 3d 49 b7 c4 3d c7 95 19 3e e0 e8 a0 3d
       0.117747754 0.09605271 0.14998542 0.078569174
0001a0 3e eb 9c 3d 70 84 82 3d 44 31 22 3e 37 3d 64 3e
       0.076620564 0.06372917 0.15839106 0.22288977
0001b0 df e1 6b 3e 11 13 05 3e 97 b9 7e 3d 42 df 5c 3d
       0.23035382 0.12995555 0.06218871 0.053923853
0001c0 0d 5c 4c 3d d9 cf 90 3d 96 87 26 3e 19 f3 22 3d
       0.049892474 0.07070894 0.1626266 0.039782617
0001d0 fd e7 10 3e 2f ae 11 3e 46 30 1d 3e 78 45 06 3e
       0.14150997 0.14226602 0.15350446 0.13112438
0001e0 2f 81 43 3d 0c e7 51 3e 9f 99 1c 3e ab 37 0e 3d
       0.04773062 0.20498294 0.15292977 0.034721058
0001f0 33 37 32 3e de dd 3c 3e e8 ed 09 3e d9 51 f0 3d
       0.1740387 0.1844401 0.1346966 0.11734361

model.14.weight f4 [128]
000000 c9 b8 85 3f ba 1c 8c 3f 08 cf 87 3f a8 9d 8b 3f
       1.0447017 1.0946267 1.0610056 1.0907488
000010 34 ef 8a 3f 0e cd 8e 3f e4 13 86 3f 09 b3 8f 3f
       1.0854249 1.1156328 1.047482 1.1226512
000020 22 6a 8b 3f 79 c1 8a 3f 59 4e 8c 3f 53 c5 83 3f
       1.0891764 1.0840293 1.096141 1.0294594
000030 e0 74 84 3f cf 41 8c 3f 83 61 86 3f 10 48 87 3f
       1.0348167 1.0957583 1.0498508 1.0568867
000040 6b 11 8b 3f f6 e0 86 3f 19 7d 86 3f 80 8b 89 3f
       1.086469 1.0537403 1.0506927 1.0745697
000050 f8 c8 88 3f d1 ce 85 3f 7d cc 81 3f 4a da 8a 3f
       1.0686331 1.045374 1.014053 1.0847867
000060 a1 29 8a 3f 50 d1 8b 3f cc 53 87 3f b1 66 87 3f
       1.0793954 1.0923252 1.0572448 1.0578214
000070 1d cf 83 3f 41 5f 8b 3f 8e 14 87 3f ff 19 8e 3f
       1.0297581 1.0888444 1.0553148 1.1101683
000080 16 f5 8c 3f 9d 80 83 3f 22 be 84 3f 61 32 89 3f
       1.1012294 1.0273625 1.0370524 1.07185
000090 58 c0 85 3f 94 40 86 3f 0c 47 83 3f 38 01 8c 3f
       1.0449324 1.0488458 1.0256057 1.0937872
0000a0 45 74 85 3f ba f1 83 3f 22 85 89 3f 99 d0 90 3f
       1.0426108 1.0308144 1.0743754 1.1313659
0000b0 e6 99 8b 3f c3 ca 83 3f e2 a0 85 3f b2 37 87 3f
       1.0906341 1.0296253 1.0439723 1.0563872
0000c0 e4 44 84 3f 1e 32 94 3f 07 fc 85 3f c3 99 8f 3f
       1.0333524 1.1577795 1.0467538 1.1218799
0000d0 4d 98 88 3f 12 fc 8e 3f 68 50 87 3f 19 c9 89 3f
       1.0671479 1.1170676 1.0571413 1.0764495
0000e0 9d f4 88 3f ca 13 85 3f 12 6d 8a 3f 6b 2e 86 3f
       1.069965 1.0396664 1.0814536 1.0482916
0000f0 e1 d4 82 3f 48 8c 87 3f b7 ed 93 3f 25 d6 84 3f
       1.0221215 1.0589685 1.155692 1.0377852
000100 48 01 89 3f 8d 68 94 3f f2 07 87 3f 92 14 89 3f
       1.0703516 1.1594406 1.05493 1.0709403
000110 01 b1 91 3f 83 5f 85 3f 58 38 84 3f 33 0f 89 3f
       1.1382142 1.0419773 1.0329695 1.0707763
000120 e3 fc 94 3f 07 0b 90 3f ab fb 88 3f b7 41 87 3f
       1.1639675 1.1253365 1.0701803 1.056693
000130 c4 9a 8a 3f c3 e4 88 3f 34 37 8b 3f 97 c7 89 3f
       1.0828481 1.0694813 1.0876222 1.0764035
000140 c9 c0 8c 3f 99 4d 86 3f e1 75 8f 3f a8 c7 88 3f
       1.0996333 1.0492431 1.1207849 1.068593
000150 8f 65 86 3f 23 7f 8a 3f b5 e4 88 3f 4c e7 88 3f
       1.0499743 1.0820049 1.0694796 1.0695586
000160 f1 aa 83 3f 1e e7 8c 3f 3e a6 8a 3f 6f 44 88 3f
       1.0286542 1.1008031 1.0831983 1.0645884
000170 33 fa 85 3f 8d 29 84 3f 8f bd 87 3f c1 e5 8c 3f
       1.046698 1.032518 1.0604724 1.1007615
000180 30 49 8b 3f 78 0d 85 3f ee 96 8f 3f 78 60 8e 3f
       1.088171 1.0394735 1.1217935 1.112319
000190 87 20 8c 3f 88 f4 8c 3f c8 b5 85 3f 39 49 8e 3f
       1.0947427 1.1012125 1.04461 1.1116096
0001a0 ee e7 88 3f c0 c9 90 3f 4d 66 85 3f b9 26 82 3f
       1.0695779 1.1311569 1.0421845 1.0168067
0001b0 63 5f 8a 3f 93 a8 85 3f 52 82 8f 3f 74 53 89 3f
       1.081036 1.044207 1.1211646 1.0728593
0001c0 73 1e 86 3f 2f 6f 8a 3f b4 64 87 3f 35 37 94 3f
       1.0478042 1.081518 1.0577607 1.1579348
0001d0 c4 8f 8c 3f 15 07 8e 3f 82 c1 90 3f 15 40 8d 3f
       1.0981374 1.1095911 1.1309054 1.1035181
0001e0 8d 8e 85 3f be a3 85 3f e7 a2 85 3f 7f 72 88 3f
       1.0434128 1.0440595 1.0440339 1.0659941
0001f0 86 10 85 3f 72 44 95 3f dd 12 88 3f c0 85 8d 3f
       1.0395668 1.1661513 1.0630757 1.1056442

model.14.bias f4 [128]
000000 00 00 00 00 00 00 00 00 00 00 00 00 00 00 00 00
       0.0 0.0 0.0 0.0
000010 00 00 00 00 00 00 00 00 00 00 00 00 00 00 00 00
       0.0 0.0 0.0 0.0
000020 00 00 00 00 00 00 00 00 00 00 00 00 00 00 00 00
       0.0 0.0 0.0 0.0
000030 00 00 00 00 00 00 00 00 00 00 00 00 00 00 00 00
       0.0 0.0 0.0 0.0
000040 00 00 00 00 00 00 00 00 00 00 00 00 00 00 00 00
       0.0 0.0 0.0 0.0
000050 00 00 00 00 00 00 00 00 00 00 00 00 00 00 00 00
       0.0 0.0 0.0 0.0
000060 00 00 00 00 00 00 00 00 00 00 00 00 00 00 00 00
       0.0 0.0 0.0 0.0
000070 00 00 00 00 00 00 00 00 00 00 00 00 00 00 00 00
       0.0 0.0 0.0 0.0
000080 00 00 00 00 00 00 00 00 00 00 00 00 00 00 00 00
       0.0 0.0 0.0 0.0
000090 00 00 00 00 00 00 00 00 00 00 00 00 00 00 00 00
       0.0 0.0 0.0 0.0
0000a0 00 00 00 00 00 00 00 00 00 00 00 00 00 00 00 00
       0.0 0.0 0.0 0.0
0000b0 00 00 00 00 00 00 00 00 00 00 00 00 00 00 00 00
       0.0 0.0 0.0 0.0
0000c0 00 00 00 00 00 00 00 00 00 00 00 00 00 00 00 00
       0.0 0.0 0.0 0.0
0000d0 00 00 00 00 00 00 00 00 00 00 00 00 00 00 00 00
       0.0 0.0 0.0 0.0
0000e0 00 00 00 00 00 00 00 00 00 00 00 00 00 00 00 00
       0.0 0.0 0.0 0.0
0000f0 00 00 00 00 00 00 00 00 00 00 00 00 00 00 00 00
       0.0 0.0 0.0 0.0
000100 00 00 00 00 00 00 00 00 00 00 00 00 00 00 00 00
       0.0 0.0 0.0 0.0
000110 00 00 00 00 00 00 00 00 00 00 00 00 00 00 00 00
       0.0 0.0 0.0 0.0
000120 00 00 00 00 00 00 00 00 00 00 00 00 00 00 00 00
       0.0 0.0 0.0 0.0
000130 00 00 00 00 00 00 00 00 00 00 00 00 00 00 00 00
       0.0 0.0 0.0 0.0
000140 00 00 00 00 00 00 00 00 00 00 00 00 00 00 00 00
       0.0 0.0 0.0 0.0
000150 00 00 00 00 00 00 00 00 00 00 00 00 00 00 00 00
       0.0 0.0 0.0 0.0
000160 00 00 00 00 00 00 00 00 00 00 00 00 00 00 00 00
       0.0 0.0 0.0 0.0
000170 00 00 00 00 00 00 00 00 00 00 00 00 00 00 00 00
       0.0 0.0 0.0 0.0
000180 00 00 00 00 00 00 00 00 00 00 00 00 00 00 00 00
       0.0 0.0 0.0 0.0
000190 00 00 00 00 00 00 00 00 00 00 00 00 00 00 00 00
       0.0 0.0 0.0 0.0
0001a0 00 00 00 00 00 00 00 00 00 00 00 00 00 00 00 00
       0.0 0.0 0.0 0.0
0001b0 00 00 00 00 00 00 00 00 00 00 00 00 00 00 00 00
       0.0 0.0 0.0 0.0
0001c0 00 00 00 00 00 00 00 00 00 00 00 00 00 00 00 00
       0.0 0.0 0.0 0.0
0001d0 00 00 00 00 00 00 00 00 00 00 00 00 00 00 00 00
       0.0 0.0 0.0 0.0
0001e0 00 00 00 00 00 00 00 00 00 00 00 00 00 00 00 00
       0.0 0.0 0.0 0.0
0001f0 00 00 00 00 00 00 00 00 00 00 00 00 00 00 00 00
       0.0 0.0 0.0 0.0
