models/wgan_discriminator.pth (torch, 433848 bytes, 21 tensors)

model.0.weight f4 [16, 1, 3, 3]
0	0xb8cbec64	-9.7238255e-05
1	0xbc1bb70a	-0.009504089
2	0xbc1bd671	-0.009511576
3	0x3c221e4f	0.009894921
4	0x3c229c97	0.009925029
5	0xbc14921b	-0.009068037
6	0x3c221301	0.009892226
7	0xbc15120f	-0.009098544
8	0x3c229f82	0.009925725
9	0xbc153190	-0.009106055
10	0xbc15b668	-0.009137727
11	0xbb9b0f68	-0.004732061
12	0x3c2340c4	0.009964172
13	0xbc12d5e4	-0.008962128
14	0x3c232cf5	0.009959449
15	0x3c2343d0	0.009964898
16	0x3c232ba6	0.009959137
17	0x3c2330f9	0.009960406
18	0x3c23d70a	0.01
19	0x3c23d70a	0.01
20	0xbbb7a97e	-0.005604922
21	0x3c23d70a	0.01
22	0x3c23d70a	0.01
23	0x3c23d70a	0.01
24	0x3c23d70a	0.01
25	0xbc0bdf8e	-0.008537186
26	0xbc0d71a5	-0.008633052
27	0x3c23d70a	0.01
28	0x3c23d70a	0.01
29	0xbbce02e8	-0.0062869675
30	0xbbd388fe	-0.0064555397
31	0x3c23d70a	0.01
32	0xbbd40dc8	-0.0064713694
33	0x3c23d70a	0.01
34	0x3c23d70a	0.01
35	0x3c23d70a	0.01
36	0x3bf58e92	0.0074938023
37	0x3bf59dd9	0.0074956235
38	0x3bf4c590	0.0074698403
39	0x3bf6c8ec	0.007531276
40	0x3bf5feb3	0.007507169
41	0xbc23d70a	-0.01
42	0xbc23d70a	-0.01
43	0x3bf695e8	0.0075251944
44	0xbc23d70a	-0.01
45	0xbc1eed5d	-0.0097001465
46	0xbc1d380c	-0.009595882
47	0x3c23d70a	0.01
48	0x3c21992b	0.009863178
49	0x3c221ed2	0.009895043
50	0xbc1fdd79	-0.009757393
51	0xbc21e66f	-0.0098816
52	0x3c22171c	0.009893205
53	0x3c222e43	0.009898725
54	0xbc23d70a	-0.01
55	0x3c056d67	0.008143759
56	0xbc23d70a	-0.01
57	0xbc23d70a	-0.01
58	0xbc23d70a	-0.01
59	0xbc23d70a	-0.01
60	0xbc23d70a	-0.01
61	0x3c053a8d	0.008131635
62	0x3c0633ed	0.008191091
63	0x3ab39584	0.0013701175
64	0xbc23d70a	-0.01
65	0x3af8e098	0.0018987833
66	0x3a7f8d67	0.00097485486
67	0xbc23d70a	-0.01
68	0xbc23d70a	-0.01
69	0x3a99c20c	0.0011730804
70	0x3ac57a8b	0.0015066428
71	0xbc23d70a	-0.01
72	0x3c23d70a	0.01
73	0x3c23d70a	0.01
74	0xbc1e075b	-0.009645308
75	0xbc1d37f6	-0.009595862
76	0xbc1e327f	-0.009655594
77	0x3c23d70a	0.01
78	0x3c23d70a	0.01
79	0xbc1e5e4b	-0.009666036
80	0xbc1ed767	-0.009694911
81	0xbc23d70a	-0.01
82	0xbc23b46c	-0.009991746
83	0xbc23cbb2	-0.009997295
84	0x3c083783	0.008314016
85	0x3c0bc5ca	0.008531043
86	0xbc23d70a	-0.01
87	0xbc23d70a	-0.01
88	0xbc23d70a	-0.01
89	0x3c0bbe04	0.00852919
90	0x3c171ce7	0.009223199
91	0xbc23d70a	-0.01
92	0xbc23d70a	-0.01
93	0xbc23d70a	-0.01
94	0xbc23d70a	-0.01
95	0xbc23d70a	-0.01
96	0xbc23d70a	-0.01
97	0xbc23d70a	-0.01
98	0xbc23d70a	-0.01
99	0xbc23d70a	-0.01
100	0xbc23d70a	-0.01
101	0xbc23d70a	-0.01
102	0xbc23d70a	-0.01
103	0xbc23d70a	-0.01
104	0xbc23d70a	-0.01
105	0x3bd66a63	0.006543444
106	0x3be43764	0.006964611
107	0xbc23d70a	-0.01
108	0x3c23d70a	0.01
109	0xbb977e93	-0.004623243
110	0x3c23d70a	0.01
111	0x3c23d70a	0.01
112	0xbb93e0f5	-0.004512901
113	0x3c23d70a	0.01
114	0x3c23d70a	0.01
115	0xbb93ba01	-0.0045082574
116	0xbb954267	-0.004555035
117	0x3c23d70a	0.01
118	0x3c23d70a	0.01
119	0x3c23d70a	0.01
120	0x3c23d70a	0.01
121	0x3c23d70a	0.01
122	0x3c23d70a	0.01
123	0xbb81caba	-0.0039609345
124	0xbb81dbab	-0.003962954
125	0x3c23d70a	0.01
126	0x3c110619	0.008851551
127	0xbc1ca82b	-0.009561579
128	0x3bf85d6d	0.0075794966
129	0x3c13404f	0.0089875
130	0xbc1c3f45	-0.009536569
131	0xbc1cb99f	-0.00956574
132	0x3b7ecc52	0.0038879109
133	0xbc1c2ca7	-0.00953213
134	0xbc1cb914	-0.00956561
135	0x3c235546	0.009969061
136	0xbc1ca19f	-0.009560018
137	0xbc1ccbfc	-0.009570118
138	0xbc21082c	-0.0098286085
139	0x3c23b0a6	0.009990847
140	0xbc1caac0	-0.009562194
141	0x3c232974	0.009958614
142	0x3c23b185	0.009991054
143	0xbc1c8788	-0.009553798

model.0.bias f4 [16]
0	0xbc23531b	-0.009968544
1	0xbc1569b7	-0.009119443
2	0x3c23d70a	0.01
3	0xbbad4f2d	-0.0052889795
4	0xbc23d70a	-0.01
5	0xbc23d70a	-0.01
6	0x3c23d70a	0.01
7	0x3c23d70a	0.01
8	0xbc233b35	-0.0099628465
9	0x3c2098af	0.009802028
10	0x3c23d70a	0.01
11	0x3c23d70a	0.01
12	0x3c23d6ef	0.009999975
13	0xbb19f7c8	-0.0023493636
14	0x3c1bf5de	0.0095190685
15	0xbc23d70a	-0.01

model.3.weight f4 [32, 16, 3, 3]
0	0xbc23d6a3	-0.009999904
1	0x3c23d6e2	0.0099999625
2	0xbc23d70a	-0.01
3	0x3c23a4df	0.009988039
4	0x3c23d55e	0.009999601
5	0xbc23d70a	-0.01
6	0xbc23d70a	-0.01
7	0xbc23b024	-0.009990726
8	0xbc23d70a	-0.01
9	0xbc23d70a	-0.01
10	0xbc23d70a	-0.01
11	0x3c22ff1c	0.009948518
12	0xbc23d70a	-0.01
13	0xbc23d70a	-0.01
14	0xbc23d70a	-0.01
15	0xbaab50d3	-0.0013070352
16	0xbc23d70a	-0.01
17	0x3c22f96a	0.00994716
18	0xbc23d70a	-0.01
19	0xbc23d70a	-0.01
20	0xbc23d70a	-0.01
21	0x3c1e34df	0.00965616
22	0x3c1e2d49	0.0096543515
23	0xbc23d70a	-0.01
24	0x3c1e3662	0.009656521
25	0xbc23d70a	-0.01
26	0x3c1db14e	0.009624792
27	0x3c20a24a	0.009804318
28	0xbc23d70a	-0.01
29	0x3c20894c	0.009798359
30	0xbc23d70a	-0.01
31	0x3c2073bb	0.009793217
32	0x3c207850	0.00979431
33	0xbba1e51b	-0.0049406416
34	0xbc23d70a	-0.01
35	0xbc23d70a	-0.01
36	0x3c229373	0.00992285
37	0x3c2288cd	0.009920311
38	0x3c228e18	0.009921573
39	0xbc23d70a	-0.01
40	0x3c22902d	0.0099220695
41	0xbc23d70a	-0.01
42	0x3c2291f5	0.009922494
43	0xbc23d70a	-0.01
44	0x3c22839f	0.009919076
45	0x3c2375ab	0.009976785
46	0x3c2351cc	0.009968232
47	0x3c236fe8	0.009975411
48	0x3c2360e9	0.009971836
49	0xbc23d70a	-0.01
50	0x3c235b11	0.009970442
51	0xbc23d70a	-0.01
52	0x3c234e6e	0.00996743
53	0xbbe206b5	-0.006897772
54	0x3c23d70a	0.01
55	0xbc1f330d	-0.009716761
56	0x3b9de829	0.0048189354
57	0x3c23d70a	0.01
58	0x3bf66803	0.0075197234
59	0xbc1e55b8	-0.009663992
60	0xbc1edf27	-0.009696758
61	0x3c23d70a	0.01
62	0x3c23d70a	0.01
63	0xbc213115	-0.009838362
64	0x3c23d70a	0.01
65	0x3c23d70a	0.01
66	0x3c23d70a	0.01
67	0xbc200091	-0.00976576
68	0xbc20ac64	-0.009806726
69	0xbc210f23	-0.009830269
70	0x39677af8	0.00022075686
71	0xb9804a51	-0.00024469433
72	0xbc237cc8	-0.009978481
73	0x3c23d70a	0.01
74	0x3c23d70a	0.01
75	0x3c23d70a	0.01
76	0x3c23d70a	0.01
77	0x3c23d70a	0.01
78	0xbc23796f	-0.0099776825
79	0x3c23d70a	0.01
80	0xbc2372fb	-0.009976144
81	0x3c23d70a	0.01
82	0x3c23d70a	0.01
83	0xbc1ee6c9	-0.009698578
84	0x3c23d70a	0.01
85	0xbc1eda25	-0.009695564
86	0x3c23d70a	0.01
87	0x3c23d70a	0.01
88	0xbc1ea3ba	-0.00968259
89	0x3c23d70a	0.01
90	0xbc1c781f	-0.0095501235
91	0x3c23d70a	0.01
92	0xbc1b5b82	-0.009482266
93	0xbc1c36b5	-0.009534528
94	0x3c23d70a	0.01
95	0x3c23d70a	0.01
96	0x3c23d70a	0.01
97	0xbc1a97a1	-0.009435565
98	0x3c23d70a	0.01
99	0xbc1daedf	-0.009624212
100	0x3c23d70a	0.01
101	0x3c23d70a	0.01
102	0x3c23d70a	0.01
103	0xbc1c7e4d	-0.009551597
104	0xbc1cac84	-0.009562615
105	0x3c23d70a	0.01
106	0x3c23d70a	0.01
107	0x3c23d70a	0.01
108	0x3c1ffc92	0.009764807
109	0xbc23d70a	-0.01
110	0xbc23d70a	-0.01
111	0xbc23d70a	-0.01
112	0x3c205a2f	0.009787126
113	0xbc23d70a	-0.01
114	0xbc23d70a	-0.01
115	0x3c203705	0.009778743
116	0x3c1f70aa	0.009731451
117	0xbc23d70a	-0.01
118	0xbc23d70a	-0.01
119	0xbc23d70a	-0.01
120	0xbc23d70a	-0.01
121	0xbc23d70a	-0.01
122	0xbc23d70a	-0.01
123	0x3c1d92c2	0.009617509
124	0x3c1d6832	0.009607362
125	0x3c1d8b35	0.009615709
126	0xbc20be2d	-0.009810966
127	0x3c23d70a	0.01
128	0x3c23d70a	0.01
129	0x3c23d70a	0.01
130	0xbc1f3b7e	-0.009718774
131	0xbc206295	-0.009789129
132	0xbc209ac1	-0.009802521
133	0xbc1f3fa5	-0.009719764
134	0xbc206c61	-0.009791465
135	0x3c23d70a	0.01
136	0x3c23d70a	0.01
137	0xbc236bea	-0.009974459
138	0xbc23759f	-0.0099767735
139	0xbc2323ec	-0.009957295
140	0x3c23d70a	0.01
141	0xbc2361ef	-0.00997208
142	0x3c23d70a	0.01
143	0x3c23d70a	0.01
144	0xbc23d6a6	-0.009999907
145	0xbc23d253	-0.009998876
146	0xbc23d669	-0.00999985
147	0xbc23d4c9	-0.009999462
148	0xbc23d70a	-0.01
149	0xbc23d398	-0.009999178
150	0x3c23ce5f	0.009997933
151	0x3c23c908	0.00999666
152	0x3c23cd42	0.009997668
153	0xbc1fddbe	-0.009757457
154	0x3c2398b7	0.0099851405
155	0x3c2397cb	0.009984921
156	0xbb683d42	-0.0035436903
157	0xbc23d6c0	-0.009999931
158	0xbc23d46d	-0.009999377
159	0x3c238bb9	0.009982043
160	0xbc23d295	-0.009998937
161	0x3c238ef8	0.009982817
162	0x3c2208bb	0.009889777
163	0xbc23a261	-0.009987445
164	0xbc239a05	-0.009985452
165	0xbc23b0e6	-0.009990906
166	0x3c220f76	0.0098913815
167	0xbc23a3b9	-0.009987765
168	0x3c21f5f6	0.009885302
169	0xbc23b44e	-0.009991718
170	0x3c21fe78	0.00988733
171	0xbbce8f17	-0.0063036787
172	0x3b4bdde4	0.00311076
173	0xbc23ac32	-0.009989785
174	0xbc23ba48	-0.009993143
175	0xbc23b70c	-0.009992372
176	0xbc23b564	-0.009991977
177	0xbc23c122	-0.009994777
178	0xbbcbacb4	-0.006215656
179	0xbc23bd08	-0.009993799
180	0x3c2357b3	0.00996964
181	0x3c2350f7	0.009968034
182	0xbc23d00a	-0.009998331
183	0x3c2358c3	0.009969893
184	0xbc23d084	-0.0099984445
185	0xbc23cfee	-0.009998305
186	0xbc23d3d2	-0.009999232
187	0x3c234d4a	0.009967158
188	0x3c234df2	0.009967314
189	0xbc23d41b	-0.0099993
190	0x3c23af0a	0.009990463
191	0x3c23b54b	0.009991954
192	0x3b4a4409	0.0030863306
193	0xbc23d3e1	-0.009999246
194	0x3c23b067	0.009990788
195	0x3c23af8e	0.009990586
196	0x3c128397	0.008942506
197	0x3c23b27a	0.009991283
198	0xbc220b0f	-0.009890332
199	0xbbb74a1b	-0.005593551
200	0xbc222408	-0.009896286
201	0x3c23bc1d	0.00999358
202	0x3c23b8ed	0.00999282
203	0xbc220ecc	-0.009891223
204	0xbc21ef68	-0.009883739
205	0xbc220aae	-0.009890242
206	0xbc21ff25	-0.009887491
207	0x3c23b5fa	0.009992117
208	0xbc232b8f	-0.009959116
209	0x3c23a6a0	0.009988457
210	0x3c23bd49	0.00999386
211	0x3c23ab92	0.009989636
212	0x3c23ae1b	0.00999024
213	0xbc231527	-0.009953774
214	0x3b87b2ea	0.0041412013
215	0x3c23afbf	0.009990632
216	0x3c23d4b6	0.009999445
217	0x3c23cee4	0.009998057
218	0x3c23d3f7	0.009999267
219	0xbc23b2f7	-0.009991399
220	0x3c23d045	0.009998386
221	0x3c23d58e	0.009999646
222	0x3c23d592	0.00999965
223	0x3c23d02b	0.009998362
224	0x3c23d4eb	0.009999494
225	0xbc222e4c	-0.009898733
226	0x3c23aa8b	0.009989391
227	0xbc225296	-0.009907385
228	0x3c23b7f5	0.009992589
229	0x3c23acb7	0.009989909
230	0xbc224fbc	-0.0099067055
231	0xbc221d4f	-0.009894683
232	0x3c23b3d8	0.009991609
233	0xbc22358c	-0.009900462
234	0xbc20f8d7	-0.009824953
235	0x3940a1bc	0.00018370798
236	0x3c2383a1	0.009980113
237	0x3c23adcc	0.009990167
238	0x3c239299	0.009983682
239	0x3c238e55	0.009982665
240	0xbc20bb3f	-0.009810268
241	0x3c239491	0.009984151
242	0xbc211153	-0.009830791
243	0x3c23ab24	0.009989534
244	0xbc2176d3	-0.00985499
245	0xbc21b339	-0.00986939
246	0x3c23b16f	0.009991034
247	0xbbaec5bd	-0.005333631
248	0xbc21b1ac	-0.00986902
249	0x3c23b53e	0.009991942
250	0xbc21558e	-0.009847058
251	0x3c239b60	0.009985775
252	0x3c22a769	0.009927609
253	0x3c22dad6	0.00993987
254	0xbc23a244	-0.009987418
255	0x3c22a83d	0.009927806

model.3.bias f4 [32]
0	0xbc23c6a4	-0.00999609
1	0xbc23bee3	-0.009994241
2	0xbc23d70a	-0.01
3	0xbc237b80	-0.009978175
4	0xbc23b7bf	-0.009992539
5	0x3b814c61	0.0039458727
6	0xbc23ca92	-0.009997027
7	0x3c223e65	0.009902571
8	0xbbc38ee4	-0.0059679616
9	0x3c239a78	0.009985559
10	0x3c21f65b	0.009885396
11	0xbc23b96b	-0.009992938
12	0xbc23c7a1	-0.009996326
13	0x3c23bd6d	0.009993893
14	0x3c231345	0.009953325
15	0xbc23beb6	-0.0099941995
16	0x3c23b0f8	0.009990923
17	0x3c217f72	0.0098570455
18	0x3c23a0d9	0.00998708
19	0x3bb7d649	0.0056102616
20	0xbc235c74	-0.009970773
21	0xbc23a7d8	-0.009988748
22	0xbc238c9a	-0.0099822525
23	0xbc23b7df	-0.009992569
24	0xbc23afa2	-0.009990605
25	0xbc23bf03	-0.009994271
26	0xbc23d4f9	-0.009999507
27	0xbc23c8f1	-0.009996639
28	0xbc23807d	-0.009979364
29	0x3b779335	0.0037776951
30	0xbc237e7f	-0.0099788895
31	0x3c23a855	0.009988864

model.6.weight f4 [32]
0	0x3c23d70a	0.01
1	0x3c22bfe0	0.009933442
2	0x3c23d70a	0.01
3	0x3c23cd67	0.009997702
4	0x3c211242	0.009831013
5	0x3c1ee920	0.009699136
6	0x3c108787	0.008821375
7	0x3c1a75f3	0.009427535
8	0x3c23d70a	0.01
9	0x3c200874	0.00976764
10	0x3c1e96e1	0.009679527
11	0x3c2113ec	0.00983141
12	0x3c23d70a	0.01
13	0x3c23d70a	0.01
14	0x3c23d70a	0.01
15	0x3c1d339e	0.009594826
16	0x3c23d70a	0.01
17	0x3c19396a	0.0093520675
18	0x3c23d70a	0.01
19	0x3c23d70a	0.01
20	0x3c21bfaa	0.009872356
21	0x3c23d70a	0.01
22	0x3c23d70a	0.01
23	0x3c22f35b	0.009945716
24	0x3c234a9b	0.009966518
25	0x3c23d6de	0.009999959
26	0x3c23d706	0.009999996
27	0x3c17d466	0.009266948
28	0x3c20c454	0.009812433
29	0x3c1c266b	0.009530644
30	0x3c214d8f	0.009845152
31	0x3c1b9bff	0.009497642

model.6.bias f4 [32]
0	0x3c0518a4	0.008123551
1	0xbbf11f62	-0.0073584775
2	0x3b1950c7	0.0023394094
3	0x3ae16448	0.0017196024
4	0x3bec04e3	0.007202731
5	0x3bab3603	0.0052249446
6	0x3af9426b	0.0019016986
7	0xbb858060	-0.0040741414
8	0x3c0c3374	0.008557189
9	0x3aa09ef3	0.0012254402
10	0xbae37fa0	-0.0017356761
11	0x3b962f30	0.004583262
12	0x3aea6869	0.00178839
13	0x3aa860de	0.0012846251
14	0x3baedb7a	0.0053362222
15	0x3c04f7ca	0.008115718
16	0xbab14ea4	-0.0013527465
17	0x3ad9d329	0.0016618717
18	0xbbf97407	-0.0076127085
19	0x3b2a549a	0.0025990368
20	0xbc12a5c6	-0.008950656
21	0x3b632d74	0.0034664543
22	0xbad8ed30	-0.001655018
23	0x3aeb3a37	0.0017946427
24	0x3c0d8d42	0.0086396355
25	0xbb82edb4	-0.0039956216
26	0xbae82817	-0.0017712143
27	0x3bfc185d	0.007693334
28	0x3bde81d9	0.0067903814
29	0x3b9f40be	0.004860013
30	0xbbae020c	-0.0053103026
31	0xbb1c3d36	-0.0023840195

model.6.running_mean f4 [32]
0	0xbb06e51a	-0.0020583333
1	0xbb0a02fa	-0.0021058903
2	0xbb0706c4	-0.0020603398
3	0xbaf64088	-0.0018787542
4	0xbb10287b	-0.0021996784
5	0x3b8043bc	0.0039143246
6	0xbaea291f	-0.0017865038
7	0x3c204f9c	0.009784605
8	0xbab73032	-0.0013976155
9	0x3c209ecb	0.009803484
10	0x3c25ac29	0.010111847
11	0xbb06cccc	-0.0020568846
12	0xbb03b2db	-0.002009562
13	0x3c1f2b50	0.009714916
14	0x3c382b6b	0.01124082
15	0xbb1de639	-0.0024093522
16	0x3c2c626e	0.010521514
17	0x3c207341	0.009793104
18	0x3c28060c	0.010255348
19	0x3bac5b71	0.005259924
20	0xbb0c9b5e	-0.002145491
21	0xbaededc8	-0.0018152529
22	0xbb0c9b47	-0.0021454857
23	0xbb100ae6	-0.0021979152
24	0xbb02ef49	-0.001997905
25	0xbaf12fdf	-0.0018401108
26	0xbaf61e78	-0.0018777391
27	0xbb071222	-0.0020610173
28	0xbb06f3ac	-0.0020592017
29	0x3b6bf623	0.0036004863
30	0xbb194657	-0.0023387873
31	0x3c1b50b4	0.00947969

model.6.running_var f4 [32]
0	0x35aea677	1.3012458e-06
1	0x35bede44	1.4220791e-06
2	0x35d2e7e0	1.5713704e-06
3	0x3596e3d9	1.1242183e-06
4	0x35d0c95c	1.5555811e-06
5	0x36d2b490	6.279508e-06
6	0x358048f6	9.557978e-07
7	0x3811e25a	3.47815e-05
8	0x3556ed45	8.0066485e-07
9	0x3815f74d	3.5754685e-05
10	0x381d9271	3.75681e-05
11	0x35afc553	1.3095945e-06
12	0x35c3706f	1.4561355e-06
13	0x38181b6e	3.626517e-05
14	0x38370f70	4.3644977e-05
15	0x35f78725	1.8442266e-06
16	0x38322a62	4.247798e-05
17	0x37e2da22	2.7042875e-05
18	0x3829b81a	4.0464198e-05
19	0x3727d739	1.0004086e-05
20	0x35d94fc5	1.6190976e-06
21	0x35993c70	1.1416978e-06
22	0x35dbcffb	1.6377302e-06
23	0x35e69a14	1.7181178e-06
24	0x35b3cbf5	1.3395899e-06
25	0x359b8272	1.1586365e-06
26	0x359f27ab	1.1857968e-06
27	0x35d8eb67	1.6161765e-06
28	0x35b3ffd7	1.3410998e-06
29	0x36d2224c	6.2624804e-06
30	0x35d5b8b4	1.5923492e-06
31	0x3807ffb2	3.2424643e-05

model.7.weight f4 [64, 32, 3, 3]
0	0x3c201a05	0.009771829
1	0x3c22db94	0.009940047
2	0x3c22d7a0	0.009939104
3	0xbc0fd200	-0.008778095
4	0x3c2329b9	0.009958678
5	0x3c232667	0.009957886
6	0x3c20a49d	0.009804872
7	0x3c233774	0.0099619515
8	0x3c2333e6	0.009961104
9	0xbc1fe10f	-0.009758248
10	0xbc228177	-0.009918562
11	0xbc228581	-0.009919525
12	0x3c15742d	0.009121937
13	0x3baa1441	0.0051904027
14	0x3c166352	0.009178953
15	0xbc204f2c	-0.009784501
16	0x3c168c9a	0.009188795
17	0x3c163f3c	0.00917035
18	0xbac258e5	-0.0014827518
19	0x3c23b692	0.009992259
20	0x3c23b93b	0.009992893
21	0x3c22e89c	0.009943154
22	0xbc1c3e92	-0.009536402
23	0xbc1b6751	-0.009485082
24	0x3c22f3ab	0.00994579
25	0x3c23d70a	0.01
26	0x3c23d70a	0.01
27	0xbc19f07e	-0.009395717
28	0x3c23a98a	0.009989152
29	0xbc1b6649	-0.009484836
30	0xbc1c4727	-0.009538448
31	0x3c23a4fb	0.009988065
32	0x3c239f01	0.00998664
33	0xbc1c762f	-0.009549662
34	0x3c23adf6	0.009990206
35	0x3b63730d	0.0034706027
36	0x3c206a5c	0.009790983
37	0x3c22c215	0.009933968
38	0xbbb01981	-0.005374134
39	0xbc1c1adb	-0.009527887
40	0x3c230933	0.009950924
41	0x3c2306a4	0.009950314
42	0x3c20dbbd	0.009818015
43	0x3c230e7f	0.009952187
44	0x3c230c9a	0.009951735
45	0x3c21e45a	0.009881103
46	0x3c23cb50	0.009997204
47	0xbc0a7cc4	-0.008452598
48	0xbad1ebd0	-0.0016015712
49	0x3c23d70a	0.01
50	0x3c23d70a	0.01
51	0xbc1a6ea9	-0.0094257975
52	0x3c23d70a	0.01
53	0xbc0d3371	-0.008618222
54	0x3c223d54	0.009902317
55	0x3c23a024	0.009986911
56	0xbc18aa23	-0.0093179075
57	0x3c227dfa	0.00991773
58	0xbc1984c7	-0.0093700355
59	0xbc19fb9d	-0.009398368
60	0xbc1a803b	-0.009429987
61	0xbc199fd5	-0.009376486
62	0xbb22ca2a	-0.0024839737
63	0xbbfc6728	-0.007702727
64	0x3c0d727c	0.008633252
65	0xbc23d5d6	-0.009999713
66	0xbc229fe1	-0.009925813
67	0xbc23d70a	-0.01
68	0x3c1360ae	0.008995218
69	0xbc229c45	-0.009924953
70	0xbc23d70a	-0.01
71	0xbc23d70a	-0.01
72	0x3c1fe2be	0.009758649
73	0x3c10928d	0.008824003
74	0x3c22a5b5	0.009927203
75	0x3bbf0d79	0.0058304635
76	0x3c22ef7b	0.009944792
77	0x3c22f6be	0.009946523
78	0xbaa48d25	-0.0012554271
79	0xbc13abb3	-0.009013104
80	0xbc12f82c	-0.008970302
81	0x3c1f256f	0.009713515
82	0xbc1dc735	-0.009630014
83	0xbc1f795f	-0.009733527
84	0x3c202cab	0.009776275
85	0xbc13c6c9	-0.009019562
86	0x3c23d70a	0.01
87	0x3c2037cf	0.009778931
88	0xba2e90cf	-0.00066591514
89	0x3c23d70a	0.01
90	0x3c1d43cc	0.009598684
91	0x39b52c90	0.00034556212
92	0xbb95a186	-0.0045663742
93	0xbc229a15	-0.009924431
94	0x3c2186b7	0.009858779
95	0xbc237354	-0.009976227
96	0x3c1fdd94	0.009757418
97	0x3c21fc0c	0.009886753
98	0x3c2207d9	0.009889566
99	0xbc18e615	-0.0093322
100	0x3c154acc	0.009112071
101	0xbc186935	-0.009302427
102	0x3c2090d1	0.009800152
103	0xbc1d24c3	-0.009591284
104	0xbc1ac816	-0.009447118
105	0x3c207819	0.0097942585
106	0x3c21fa84	0.009886388
107	0x3c22e8c8	0.009943195
108	0x3c22385c	0.009901132
109	0xbc21109b	-0.009830619
110	0x3c1d69cf	0.009607746
111	0xbc21b0bf	-0.0098688
112	0xbb5e066d	-0.0033878342
113	0xbc22f0cf	-0.009945109
114	0xbc217c84	-0.009856347
115	0xbc1dfcb7	-0.009642771
116	0xbc22f4f8	-0.0099461
117	0xbabddfbb	-0.0014486233
118	0xbc23d256	-0.009998878
119	0x3be4ee9e	0.006986453
120	0xbc23d70a	-0.01
121	0xbc23d70a	-0.01
122	0x3beb0da6	0.007173258
123	0xbabe6f53	-0.0014529027
124	0xbc23d70a	-0.01
125	0x3aeabe3c	0.0017909477
126	0x3c225f82	0.009910466
127	0xbc044fea	-0.008075694
128	0x3c23d70a	0.01
129	0x3c22b624	0.009931121
130	0x3c23d70a	0.01
131	0x3c23d70a	0.01
132	0xbc123357	-0.008923373
133	0x3c23d70a	0.01
134	0x3c23d70a	0.01
135	0xbc18a578	-0.009316795
136	0xbc17aa17	-0.009256861
137	0x3c22c8be	0.009935556
138	0x3c20b830	0.009809539
139	0x3c230750	0.009950474
140	0xbc1b6f7c	-0.009487029
141	0x3bf869ec	0.0075809862
142	0x3c230d1d	0.009951857
143	0x3c2307d8	0.009950601
144	0x3bae951c	0.005327834
145	0xbc23d70a	-0.01
146	0xbc23d70a	-0.01
147	0xbc23d62e	-0.009999795
148	0xbc23d70a	-0.01
149	0x3c003708	0.0078256205
150	0xbc12bcec	-0.008956175
151	0x3c0bea09	0.008539685
152	0xbb501523	-0.003175088
153	0xbc21bad0	-0.0098712
154	0xbc22f445	-0.009945934
155	0x3c1e578b	0.009664427
156	0x3c223c76	0.00990211
157	0x3c1a3ef7	0.009414426
158	0xbc22f235	-0.009945442
159	0xbc2289a9	-0.009920516
160	0xbc23d23c	-0.009998854
161	0x3c1fd720	0.00975588
162	0xbc10278a	-0.008798489
163	0x3c236324	0.009972367
164	0xbc07a630	-0.008279368
165	0x3b901d9e	0.004398062
166	0xbc09094a	-0.008364031
167	0xbb9ec3b3	-0.0048451065
168	0x3c23a05e	0.009986965
169	0xbc0a45f8	-0.008439533
170	0xbc07f4b4	-0.008298088
171	0xbc0dcbd1	-0.008654551
172	0x3c23d70a	0.01
173	0x3c23d70a	0.01
174	0xbc1110f7	-0.008854142
175	0x3c23d70a	0.01
176	0xbc050c1b	-0.008120562
177	0x3c235168	0.009968139
178	0x3c23d70a	0.01
179	0xbc03713c	-0.008022603
180	0xbc1fafd9	-0.009746515
181	0xbc22643e	-0.009911595
182	0x3c0c7a7a	0.008574123
183	0x3c13558e	0.008992566
184	0xbc22bd12	-0.009932773
185	0xbc22c3b8	-0.009934358
186	0xbc1ff445	-0.009762828
187	0x3c150944	0.009096447
188	0xbc22c1c0	-0.009933889
189	0x3c1d56c2	0.009603204
190	0x3c1f6268	0.009728052
191	0x3c20c7d8	0.009813271
192	0x3c1e811b	0.009674336
193	0x3c208d6a	0.009799341
194	0xbc1f9135	-0.00973921
195	0xbc209987	-0.009802229
196	0x3c208973	0.009798395
197	0x3c220cb8	0.009890728
198	0xbc1984da	-0.009370053
199	0x3977c477	0.00023628944
200	0x3be309e4	0.0069286693
201	0x3c1e520a	0.009663114
202	0x3c209a2e	0.009802384
203	0xbc194382	-0.009354474
204	0x3c1e10c7	0.009647555
205	0x3bc8187d	0.006106435
206	0x3c20d49b	0.009816314
207	0xbb93f63d	-0.004515438
208	0x3c236de4	0.00997493
209	0xbc1ba4a1	-0.0094997
210	0xbc1dcc02	-0.009631159
211	0x3b0861f7	0.0020810345
212	0x3c238d0d	0.00998236
213	0x3c22ffeb	0.009948711
214	0x3c2357a6	0.0099696275
215	0x3ab872e8	0.0014072331
216	0x3c1e8f0a	0.009677658
217	0x3bb0f119	0.005399835
218	0xbc1a9bc7	-0.009436554
219	0xbc1f2d3a	-0.009715373
220	0x3c1e3991	0.00965728
221	0xbc1dd1bc	-0.009632524
222	0x3c1e4b27	0.009661472
223	0x3c1e5040	0.009662688
224	0x3c167b66	0.009184694
225	0x3c15623e	0.009117661
226	0x3c190eac	0.009341877
227	0xbbf9794b	-0.007613336
228	0xbc21b905	-0.009870772
229	0xbc2323b7	-0.009957246
230	0x3c1d8da6	0.009616291
231	0x3c18ae2a	0.009318868
232	0xbc233b23	-0.00996283
233	0x3c1d5c4d	0.009604526
234	0xbc20579a	-0.009786511
235	0xbc223ae9	-0.009901741
236	0x3c17f3a4	0.009274397
237	0xbc2149d5	-0.009844263
238	0x3c1b0267	0.009461022
239	0xb80757ba	-3.226821e-05
240	0x3bedd0b2	0.0072575444
241	0x3aedc089	0.0018139045
242	0x3b16c64d	0.002300638
243	0x3c205668	0.009786226
244	0x3c22a8d5	0.009927948
245	0x3c22a25c	0.009926405
246	0x3b8312a7	0.0040000263
247	0xbc1d0544	-0.009583775
248	0xbb781863	-0.0037856332
249	0xbc1efbe0	-0.009703606
250	0x3c22f195	0.009945293
251	0x3c22ebe4	0.009943936
252	0xbc14aafb	-0.009073968
253	0x3b05200c	0.002031329
254	0x3b649d3b	0.0034883756
255	0xbbd3eeb8	-0.0064676665

model.7.bias f4 [64]
0	0x3bfde9bf	0.007748812
1	0xbb94f246	-0.004545483
2	0xba9a1607	-0.0011755832
3	0x3a6663fe	0.00087887037
4	0xbaf5ff6c	-0.0018768138
5	0x3acbc749	0.0015547063
6	0x3a96ec9b	0.0011514606
7	0xbaa56424	-0.0012618345
8	0xbaa5adb3	-0.0012640267
9	0xba84aa11	-0.0010121485
10	0xba93a225	-0.0011263533
11	0xba0fe38e	-0.00054889254
12	0xba8458de	-0.0010097285
13	0xb9c766e1	-0.0003803289
14	0xbb833357	-0.004003923
15	0xb9e7ed71	-0.0004423666
16	0xb8da369f	-0.00010405224
17	0x3a26fcac	0.00063700485
18	0xbc0e7252	-0.008694248
19	0xbba656e2	-0.005076275
20	0xbc0fe6b6	-0.008783033
21	0xbb41ff99	-0.002960181
22	0x3aa0b7f0	0.0012261849
23	0xb9a158d3	-0.00030774492
24	0xba42ce3f	-0.0007431246
25	0xb8d87ada	-0.000103225655
26	0xbaf0b2ad	-0.0018363796
27	0xbb0c6952	-0.002142508
28	0x3b818080	0.003952086
29	0xbb247bbc	-0.0025098165
30	0xbb222479	-0.0024740978
31	0xbc1f2b63	-0.009714934
32	0xbb3ab938	-0.0028491747
33	0x3bb5afba	0.00554463
34	0x38b2c1e7	8.5238185e-05
35	0xbb440668	-0.0029911045
36	0xbb67ca36	-0.003536833
37	0xbb9587fe	-0.0045633307
38	0xbb0b1943	-0.0021224774
39	0x3ae99472	0.0017820729
40	0xba929bbd	-0.001118533
41	0xbb4c3710	-0.003116075
42	0x3a4c08d6	0.0007783299
43	0xbb01fb75	-0.0019833718
44	0xb847e4ad	-4.7658268e-05
45	0xb92acaaa	-0.00016287962
46	0xba4801af	-0.00076296454
47	0xbac91b66	-0.0015343248
48	0xbbc831d6	-0.0061094565
49	0x3ad4d35c	0.0016237306
50	0xbb45f95c	-0.0030208444
51	0xbb8a8464	-0.004227208
52	0xbb5c6869	-0.003363157
53	0xbb383a0c	-0.002811077
54	0xb9548fe4	-0.00020271499
55	0xbbf07081	-0.0073376303
56	0x3b3fb3f9	0.002925156
57	0xbb849496	-0.004046033
58	0xbb57ef95	-0.0032949199
59	0xb8885a8e	-6.5018525e-05
60	0xbbc5c371	-0.0060352613
61	0x3a91a162	0.0011110718
62	0xbb11bee9	-0.0022239035
63	0xbb3bc938	-0.0028653871

model.10.weight f4 [64]
0	0x3c033e81	0.008010508
1	0x3c1c16b4	0.009526897
2	0xba9616d4	-0.0011450895
3	0x3baf7b06	0.0053552417
4	0x392c2c18	0.00016419624
5	0x3a8e47fb	0.0010855192
6	0x3aa34fb8	0.0012459671
7	0x3b205bf8	0.002446888
8	0xba48e6a2	-0.00076637615
9	0xba22edaa	-0.0006215224
10	0x3b15994c	0.0022826968
11	0xba2fbd86	-0.00067039614
12	0xb9a2fbdc	-0.00031086698
13	0xba4c8d91	-0.00078030775
14	0x3bf8b271	0.0075896312
15	0xb82a3834	-4.05835e-05
16	0x39f06038	0.00045848056
17	0xbb0264c5	-0.001989649
18	0x3c216315	0.009850283
19	0x3b8cbc0d	0.0042948783
20	0x3c14b1c9	0.00907559
21	0x3b41b132	0.002955508
22	0x3a5c9f7a	0.0008416098
23	0x3bd0af3d	0.0063685463
24	0x3acbe81f	0.0015556848
25	0x3b1f1b12	0.002427761
26	0x3ad85b4e	0.0016506703
27	0xb9030c1c	-0.00012497645
28	0xbb4b4e85	-0.0031022143
29	0x3af0afff	0.0018362998
30	0x3b7abddc	0.0038260138
31	0x3c1e75ef	0.009671672
32	0xba00320c	-0.000489027
33	0x3bc3189d	0.005953862
34	0x3866174b	5.4857966e-05
35	0x3ab3e3c4	0.0013724496
36	0x3b6cb3db	0.0036117944
37	0x3b105a49	0.002202647
38	0xba2ecf15	-0.0006668431
39	0xbb99da46	-0.0046952097
40	0xbb0d2466	-0.0021536588
41	0x3a419028	0.00073838467
42	0x3a840efe	0.0010075269
43	0x3acbf83e	0.0015561653
44	0xbaabd085	-0.0013108408
45	0x3b0b8613	0.0021289631
46	0x3a3c325c	0.0007179135
47	0x3b15188c	0.0022750227
48	0x3bc8d2ec	0.0061286595
49	0xbb01b78f	-0.0019793247
50	0x3b664fbf	0.0035142747
51	0x3b9e0222	0.0048220316
52	0x3b18574b	0.002324539
53	0xb86d9cf0	-5.6651363e-05
54	0xba68f5e3	-0.00088867376
55	0x3bdf1d5e	0.0068089208
56	0xbaf0b863	-0.0018365498
57	0x3b6cf165	0.0036154625
58	0x3b84dcf8	0.004054662
59	0x3a82fee7	0.000999418
60	0x3b9f02c1	0.004852623
61	0xbb26f4ec	-0.0025475575
62	0x3bb3dd5a	0.0054890336
63	0x3b71ac97	0.0036876553

model.10.bias f4 [64]
0	0xbb33662b	-0.002737413
1	0xbad90bb3	-0.0016559273
2	0x3b96de31	0.004604124
3	0x3b1e6083	0.0024166412
4	0xbbbd9604	-0.0057857055
5	0x3b58153d	0.0032971643
6	0x3b476c3f	0.003042951
7	0xbbbf95e0	-0.005846724
8	0x3b757050	0.0037450977
9	0x3bdaac11	0.006673344
10	0x3b1247a1	0.0022320526
11	0xbb4a98b0	-0.0030913763
12	0x3ac344a0	0.0014897771
13	0x3b439bcd	0.0029847503
14	0xbb4dc355	-0.0031396945
15	0xbbb97a6e	-0.0056603467
16	0xbb73521f	-0.0037127805
17	0x3b8c8710	0.0042885616
18	0xbb8c1d57	-0.0042759585
19	0x3bbba18d	0.0057260455
20	0xbbb823d6	-0.0056195064
21	0xbb8b0b3b	-0.004243282
22	0xbba88a1c	-0.005143417
23	0x3bb98c48	0.005662475
24	0xbb960705	-0.0045784735
25	0x3bbca9bd	0.005757539
26	0x3bd2c38e	0.0064320033
27	0xbb833fd8	-0.0040054135
28	0x3b7c93c3	0.0038540221
29	0xbb878801	-0.004136086
30	0x3b8d5464	0.0043130387
31	0x3b837df8	0.0040128194
32	0xbbc98829	-0.0061502648
33	0x3bac56e0	0.0052593797
34	0x3b74dd2a	0.003736327
35	0x3bfa5561	0.0076395725
36	0xbb25866d	-0.0025257126
37	0xbb4f8b40	-0.0031668693
38	0x3b98b054	0.004659692
39	0x3b7a153e	0.0038159634
40	0x3b95ff53	0.004577556
41	0xbbba298a	-0.0056812214
42	0x3b671cb4	0.003526491
43	0xbb657d27	-0.0035017224
44	0x3bbf9217	0.0058462727
45	0x3bd8bcc6	0.0066143004
46	0x3bb3c442	0.0054860422
47	0x3b8aae90	0.0042322353
48	0xbbb18aa1	-0.005418137
49	0x3b7c67f5	0.0038514112
50	0x3b934c8b	0.0044952086
51	0xbbecac8c	-0.0072227176
52	0xbbd23ccd	-0.0064159394
53	0x3ba05053	0.004892388
54	0xbb7e9070	-0.0038843416
55	0xb9dfde54	-0.00042699522
56	0xbb9c29ac	-0.00476571
57	0xbbd4df20	-0.006496325
58	0xba70201a	-0.0009160057
59	0x3b548c54	0.0032432275
60	0xbb973b0a	-0.0046151923
61	0x3b880298	0.0041507
62	0xbbf1eefb	-0.007383225
63	0x3bb278cc	0.005446529

model.10.running_mean f4 [64]
0	0x3c35b534	0.0110905655
1	0xba571a6c	-0.0008205536
2	0xb8c3a5d4	-9.3292125e-05
3	0x3abdc040	0.0014476851
4	0x37454473	1.1758052e-05
5	0x3a89ee2e	0.0010523254
6	0x3adfadc9	0.0017065342
7	0xba26cb03	-0.00063626486
8	0xb852fa13	-5.03008e-05
9	0xb895d2ad	-7.144115e-05
10	0xb9ac8b86	-0.0003291035
11	0xb8bfd9cd	-9.148158e-05
12	0xb940cb80	-0.00018386357
13	0xb8ec721f	-0.00011274614
14	0xba5c70e4	-0.0008409156
15	0xb8e9c7fb	-0.00011147555
16	0xb9412fec	-0.00018423767
17	0x3ac1ceb7	0.0014786337
18	0xbb0113d1	-0.001969565
19	0xba71e10c	-0.0009226955
20	0xbac79cd4	-0.0015229234
21	0xb9cb6c0f	-0.00038799687
22	0x3a188a9b	0.00058189937
23	0xb8cecbee	-9.86083e-05
24	0xb9766f80	-0.00023501925
25	0xb9ae9f6e	-0.0003330665
26	0xb9d21968	-0.0004007325
27	0xb918d978	-0.00014576863
28	0x3bad608b	0.00529105
29	0xba0d442d	-0.0005388882
30	0xb987c3a7	-0.0002589498
31	0xbb021307	-0.0019847767
32	0xba22742b	-0.000619712
33	0x3bb4f359	0.0055221734
34	0xb872e882	-5.7913836e-05
35	0xba10f2a9	-0.0005529323
36	0xba029056	-0.0004980614
37	0xba0b2114	-0.0005307358
38	0xb91100c5	-0.00013828564
39	0x3b1b5db5	0.0023706977
40	0xb92160e7	-0.00015390255
41	0xba4610c7	-0.00075556006
42	0xb919f605	-0.00014682866
43	0xb9786f34	-0.0002369255
44	0xb8b9e7e2	-8.864679e-05
45	0xb9686ae3	-0.00022165063
46	0xb968613e	-0.0002216147
47	0xb999d384	-0.00029340026
48	0xba9d26bc	-0.0011989693
49	0x3b3b798a	0.0028606378
50	0xba3ac33e	-0.000712443
51	0xba776915	-0.00094379607
52	0xb9d5b19d	-0.00040758858
53	0xba7267c0	-0.00092470273
54	0xb8e114d0	-0.00010732713
55	0xbabe3d48	-0.0014514113
56	0x3bbbace9	0.0057273996
57	0xba49bb43	-0.00076954457
58	0xba1dc187	-0.00060179125
59	0xb91bf20d	-0.00014872123
60	0xba8e221d	-0.0010843907
61	0xb881323c	-6.160556e-05
62	0xb9c297f7	-0.00037115786
63	0xb9eafb8b	-0.00044819372

model.10.running_var f4 [64]
0	0x381cd24e	3.738916e-05
1	0x346f3094	2.2276282e-07
2	0x31830e02	3.8141943e-09
3	0x353295f3	6.652837e-07
4	0x313eaf33	2.7748228e-09
5	0x34f31b52	4.5282155e-07
6	0x356f7021	8.919761e-07
7	0x341a280e	1.435694e-07
8	0x319ef98b	4.626775e-09
9	0x3111b4d1	2.120306e-09
10	0x332916cb	3.936911e-08
11	0x31921db7	4.2525374e-09
12	0x324aed6d	1.1811932e-08
13	0x31958ee2	4.3527146e-09
14	0x345da56d	2.064241e-07
15	0x319b91e4	4.5276796e-09
16	0x32783294	1.4447e-08
17	0x355f3f11	8.316575e-07
18	0x359b280c	1.1560055e-06
19	0x34b03b31	3.2825622e-07
20	0x355056a8	7.761214e-07
21	0x33501ae6	4.8453238e-08
22	0x34059a5d	1.2442747e-07
23	0x3184dd36	3.8668544e-09
24	0x32ad4421	2.0170832e-08
25	0x33260b01	3.8659895e-08
26	0x334e74ca	4.806933e-08
27	0x31d8d442	6.3105583e-09
28	0x37247bd8	9.803996e-06
29	0x33ea8eca	1.0922447e-07
30	0x32db5fe9	2.553857e-08
31	0x35af3790	1.3054687e-06
32	0x34043688	1.2313296e-07
33	0x372a9237	1.0166833e-05
34	0x30b878d9	1.3422109e-09
35	0x33d400b5	9.872148e-08
36	0x33d11eaf	9.737902e-08
37	0x33ecf458	1.1034052e-07
38	0x3232ba27	1.040329e-08
39	0x3603d4d3	1.9644401e-06
40	0x32268af9	9.69407e-09
41	0x343ec8a2	1.7768119e-07
42	0x3208fe31	7.974038e-09
43	0x32a87f1d	1.9615578e-08
44	0x312d2c33	2.5199938e-09
45	0x32aec9fa	2.0348114e-08
46	0x3297fc76	1.769352e-08
47	0x331166b5	3.3853855e-08
48	0x34e87c61	4.3303865e-07
49	0x363a0539	2.77192e-06
50	0x34202230	1.4913599e-07
51	0x349e503f	2.948818e-07
52	0x337c847c	5.8793816e-08
53	0x34960412	2.794264e-07
54	0x31ab4c94	4.985461e-09
55	0x355b8e89	8.1791273e-07
56	0x3736dd85	1.0899622e-05
57	0x3452bd08	1.9626543e-07
58	0x3420e590	1.4984676e-07
59	0x31fca063	7.352399e-09
60	0x350181bd	4.824504e-07
61	0x31ec7543	6.881835e-09
62	0x3327f139	3.9102108e-08
63	0x3394778c	6.9135325e-08

model.11.weight f4 [128, 64, 3, 3]
0	0x3bd0067d	0.0063484297
1	0xbbe2749e	-0.0069108745
2	0xbbe247cc	-0.0069055315
3	0x3bff8185	0.0077974224
4	0x3bd9ea3c	0.0066502374
5	0x3c22f87d	0.00994694
6	0xbbef114f	-0.0072957645
7	0xbb4e732f	-0.003150176
8	0x3c23cd4f	0.00999768
9	0x3bd19e8a	0.006397073
10	0x3be77451	0.0070634265
11	0xbbdf1523	-0.0068079396
12	0xbbe88463	-0.00709586
13	0xbc05ca37	-0.008165888
14	0xbc0600f2	-0.008178936
15	0x3bfd9157	0.007738273
16	0x3c23cf26	0.0099981185
17	0xbc065429	-0.008198776
18	0x3bccea92	0.006253549
19	0x3bda6ac7	0.006665561
20	0xbc00d5f2	-0.007863509
21	0xbc037b9c	-0.008025076
22	0x3c05d078	0.008167379
23	0xbc23ce9f	-0.009997993
24	0x3be8dede	0.007106646
25	0xbbdca7ae	-0.006733856
26	0x3c063610	0.0081916
27	0x3bd323c5	0.006443473
28	0x3b8871dc	0.0041639637
29	0x3be23590	0.006903358
30	0x3becc98f	0.007226176
31	0x3a958322	0.0011406878
32	0x3b06d9e4	0.002057665
33	0xbada69da	-0.0016663626
34	0x3c07bb67	0.008284426
35	0x3c0797eb	0.008275966
36	0xbbb4e2de	-0.0055202087
37	0x3be083a2	0.0068516294
38	0xbbe00813	-0.0068369
39	0x3bfa9f4b	0.0076483837
40	0x3c23cef1	0.009998069
41	0x3c23cfb6	0.009998253
42	0xbbb43aed	-0.0055001886
43	0xbc07158c	-0.008244883
44	0xbc078437	-0.008271269
45	0x3bd9c90c	0.006646281
46	0xbbecbe45	-0.0072248303
47	0xbbec31bf	-0.0072080786
48	0x3beff4de	0.0073228916
49	0x3c23c84f	0.009996488
50	0xbc0f7c3d	-0.008757648
51	0xbb93649b	-0.004498077
52	0xbc1079ce	-0.008818103
53	0x3c19fb52	0.009398298
54	0x3bcd2458	0.006260436
55	0xbbd85510	-0.006601937
56	0xbb0d27d7	-0.002153864
57	0xbbc8ee26	-0.006131905
58	0xbc23cf28	-0.00999812
59	0x3c037fd6	0.008026084
60	0xbbc87dec	-0.0061185267
61	0xbc23cfb7	-0.009998254
62	0x3c057e0a	0.008147726
63	0xbbcdb192	-0.0062772715
64	0xbbdaa8e2	-0.0066729644
65	0xbbdaad41	-0.0066734855
66	0x3c039961	0.008032174
67	0x3c23cee9	0.009998062
68	0x3c23cdb1	0.009997771
69	0x3b4a0f8e	0.0030832025
70	0xbc048166	-0.008087492
71	0xbc05c76e	-0.0081652235
72	0x3b9caabf	0.0047810967
73	0xbbdcdbe3	-0.0067400797
74	0x3c02aa96	0.007975241
75	0xbbeac089	-0.0071640653
76	0xbc064eb6	-0.008197477
77	0xbc064388	-0.008194812
78	0xbbeaadcd	-0.007161832
79	0xbc06e221	-0.008232624
80	0x3c23d03f	0.00999838
81	0xbb64597d	-0.0034843378
82	0x3bda9003	0.0066699996
83	0x3bdb130c	0.00668562
84	0xbc022269	-0.007942774
85	0xbc23d073	-0.009998429
86	0xbb4e5329	-0.0031482673
87	0xbc0228e4	-0.007944319
88	0x3c061784	0.0081843175
89	0x3c0735e8	0.008252598
90	0xbbce474d	-0.006295121
91	0xb9b0f5aa	-0.0003375237
92	0xbbfb88f4	-0.007676238
93	0xbb821f97	-0.003971051
94	0x3c057181	0.008144737
95	0x3c05eaf7	0.008173696
96	0xbc030eef	-0.007999166
97	0x3c060f29	0.008182325
98	0x3c063aab	0.0081926985
99	0xbbcdca7f	-0.006280243
100	0x3bfbe405	0.007687094
101	0xbbd68a76	-0.0065472675
102	0xbbe4582a	-0.006968518
103	0xbc0421e7	-0.008064724
104	0x3c23ce52	0.009997921
105	0x3c052edb	0.008128847
106	0xbc050f61	-0.008121342
107	0xbb165cb0	-0.002294343
108	0xbbcc704f	-0.006238974
109	0xbbdd4e4a	-0.0067537175
110	0xbbdcb3b8	-0.0067352913
111	0xbb5c7c66	-0.0033643483
112	0x3be5c19f	0.007011607
113	0xbc23d0ea	-0.009998539
114	0x3be7bf44	0.007072361
115	0xbc23d0eb	-0.00999854
116	0x3c060383	0.008179548
117	0xbbd364d8	-0.0064512305
118	0xbbf0e039	-0.007350948
119	0xbb5970b6	-0.0033178753
120	0xbc035c11	-0.008017556
121	0x3c05281c	0.008127239
122	0x3c059a91	0.008154527
123	0x3b17ff8a	0.0023193085
124	0xbc23cff0	-0.009998307
125	0x3c06191e	0.008184699
126	0x3bd3d43d	0.0064645098
127	0x3bd54d0b	0.0065094284
128	0xbbde9475	-0.0067926
129	0x3c015747	0.007894344
130	0xbb8b23f7	-0.0042462307
131	0xbc061609	-0.0081839645
132	0x3c011d6a	0.007880548
133	0x3c23cfcf	0.009998276
134	0x3b15a643	0.0022834695
135	0xbbce8a09	-0.006303076
136	0x3bdc40db	0.0067215986
137	0xbbd8f05a	-0.006620449
138	0x3c04f9b5	0.008116175
139	0xbc05583e	-0.008138714
140	0x3c23cf87	0.009998209
141	0x3ae80e2a	0.0017704417
142	0x3c23cfb7	0.009998254
143	0x3c23cfc2	0.009998264
144	0xbbcdf4bf	-0.0062852795
145	0x3bcdb796	0.0062779887
146	0x3b2ada71	0.0026070143
147	0x3bf9d151	0.0076238294
148	0xbc059d3e	-0.008155165
149	0x3c23d0f3	0.009998548
150	0x3bf97821	0.0076131974
151	0xbc062608	-0.008187778
152	0xbbe39e75	-0.00694638
153	0xbbd372f2	-0.0064529115
154	0x3bd9970f	0.006640322
155	0xbbf2e408	-0.0074124373
156	0x3bc89c93	0.0061221807
157	0xbc23cbae	-0.0099972915
158	0xbc23cfa5	-0.009998237
159	0xbc043a5c	-0.008070555
160	0x3a647fe1	0.0008716565
161	0x3c0560d7	0.008140764
162	0x3a10c44c	0.00055224146
163	0x3bd43005	0.006475451
164	0x3b31853e	0.0027087475
165	0xbb5e9020	-0.0033960417
166	0xbc05ff02	-0.008178474
167	0xbc024e86	-0.007953292
168	0xbbe5d32e	-0.0070137
169	0xbc05a706	-0.008157497
170	0xbc05c944	-0.008165661
171	0xbbb7668c	-0.0055969413
172	0x3bd90576	0.0066229654
173	0xbbee11e3	-0.007265316
174	0x3bc3bacf	0.005973197
175	0xbc23c711	-0.009996192
176	0x3c038ba6	0.0080289
177	0x3bc3980a	0.005969052
178	0xbc23d1ee	-0.009998782
179	0xbb65db40	-0.003507331
180	0xbbd16614	-0.0063903425
181	0xbb738c8b	-0.0037162628
182	0x3a931b85	0.0011223411
183	0xb7c30b5a	-2.3251097e-05
184	0xbc070611	-0.008241192
185	0x3a42c912	0.00074304745
186	0xbb38c86c	-0.0028195633
187	0xbc06bc68	-0.0082236305
188	0x3c23cfc9	0.00999827
189	0x3be31ff6	0.0069313003
190	0x3becdd64	0.0072285403
191	0x3bebd1f1	0.007196658
192	0x3c02dbdd	0.00798699
193	0x3a6bd280	0.00089959055
194	0xbc06ce94	-0.008227963
195	0x3c02cd8a	0.007983575
196	0xbc06f802	-0.008237841
197	0xbb95d0c8	-0.004572008
198	0xbbcda76a	-0.006276061
199	0xbb6130d1	-0.0034361372
200	0x3c01e730	0.007928655
201	0xbba2adbe	-0.0049645593
202	0xbc069ee4	-0.008216593
203	0x3c23cf63	0.009998175
204	0xbb64442e	-0.0034830677
205	0xbc06df08	-0.008231886
206	0x3c23cf70	0.009998187
207	0xbbd6c400	-0.0065541267
208	0xbaae690a	-0.001330645
209	0x3bdea770	0.0067948624
210	0x3bef9691	0.00731165
211	0x3c04f769	0.008115628
212	0xbc23ce2b	-0.009997885
213	0xbb3f42af	-0.0029184034
214	0xbc23ce99	-0.009997987
215	0xbc23ced9	-0.009998047
216	0x3bc849fc	0.0061123352
217	0x3be05e22	0.006847159
218	0x3be0dbe2	0.0068621496
219	0xbbe695bf	-0.007036894
220	0x3c23cd56	0.009997686
221	0x3c23ce10	0.00999786
222	0x3c049f6a	0.008094648
223	0x3a7131e7	0.00092008564
224	0xbc05a831	-0.008157776
225	0x3ae1aa2b	0.0017216852
226	0xbbce0dac	-0.006288251
227	0xbbae5f3b	-0.005321411
228	0xbb3329f9	-0.002733825
229	0x3ba0444f	0.0048909555
230	0x3c052270	0.008125886
231	0xbc03fc8d	-0.008055818
232	0x3c0555d0	0.008138135
233	0x3c05d426	0.008168256
234	0x3bce9bd0	0.0063051954
235	0x3bdea5a6	0.006794649
236	0x3bdea13a	0.006794122
237	0xbc02fbdd	-0.007994619
238	0x3c07316f	0.008251532
239	0x3c0777fa	0.008268351
240	0xbc02fa39	-0.007994228
241	0xbbf0315a	-0.007330102
242	0xbc23d0b3	-0.009998488
243	0x3bce02a2	0.006286935
244	0xbbd98098	-0.006637644
245	0xbbd0c40e	-0.006371028
246	0x3c03b6a5	0.008039151
247	0xbb8bf820	-0.004271522
248	0x3c23ce7d	0.009997961
249	0x3c03ad22	0.008036884
250	0x3c23ce8c	0.009997975
251	0xbc05cb32	-0.008166121
252	0xbbd0729e	-0.0063613197
253	0xbbde1dfb	-0.0067784763
254	0x3bea5c15	0.0071520903
255	0xbbeabb03	-0.007163407

model.11.bias f4 [128]
0	0x3baa2c76	0.0051932884
1	0x3ba94183	0.0051652803
2	0xbc23cc35	-0.009997417
3	0x3b184ee6	0.0023240387
4	0xbb00f9df	-0.0019680185
5	0x3b85696f	0.0040714066
6	0xbc23d1d5	-0.009998758
7	0xbba04a73	-0.0048916875
8	0xbb8b1621	-0.0042445813
9	0x3c10f7b2	0.008848118
10	0x3c0c14c6	0.008549875
11	0x3c225381	0.009907604
12	0xbc235694	-0.009969372
13	0xbc23a989	-0.009989151
14	0x3c0370fe	0.008022545
15	0x3c0d402c	0.008621257
16	0xbba75b8e	-0.0051073497
17	0xbc23d4c3	-0.009999457
18	0x3c1d406b	0.009597878
19	0xbc23babc	-0.009993251
20	0x3bf37ad3	0.0074304133
21	0xbc23c7dd	-0.009996382
22	0xbaba8ecb	-0.001423323
23	0xbc23c204	-0.009994987
24	0xbbf04018	-0.0073318593
25	0x3bfecfac	0.0077762213
26	0x3c1a33ee	0.009411795
27	0xbc23c866	-0.009996509
28	0x3c23c767	0.009996272
29	0x3c1eba06	0.009687906
30	0x3b42bcb5	0.002971453
31	0x3c0ba429	0.008523026
32	0xbc23a8c6	-0.009988969
33	0xbc23cd88	-0.009997733
34	0x3ae9fdd7	0.001785214
35	0x3c209fa5	0.009803687
36	0xbc23a318	-0.009987615
37	0xbc21b9ef	-0.00987099
38	0xbc23c253	-0.009995061
39	0xbac05e37	-0.0014676516
40	0xbc23d69f	-0.0099999
41	0x3c13b73f	0.009015857
42	0xbc2396d4	-0.009984691
43	0xbc10f719	-0.008847975
44	0xbb1c1262	-0.0023814668
45	0x3986211c	0.0002558314
46	0x3bab4c9f	0.00522764
47	0xbc23d70a	-0.01
48	0x3c23bb00	0.009993315
49	0x3bfc4be7	0.007699478
50	0xbc23d705	-0.009999995
51	0x3ba6ba29	0.00508811
52	0xbc23cda3	-0.009997758
53	0xba8b0fd4	-0.0010609576
54	0xbc23c98e	-0.009996785
55	0xbc23d3d6	-0.009999236
56	0xbc23c326	-0.0099952575
57	0x3bff6e42	0.007795126
58	0xbc23cf4b	-0.009998153
59	0x3a5dd6f3	0.0008462511
60	0xbc212e8d	-0.009837759
61	0x3a182d93	0.0005805131
62	0x3aa0f94d	0.0012281329
63	0x3b7c0b70	0.0038458966
64	0xbc23ce68	-0.009997942
65	0xbbba0cea	-0.005677809
66	0xbba44b4b	-0.0050138584
67	0x3b9a31f5	0.0047056624
68	0x3c0b2219	0.008492016
69	0xbc23d179	-0.009998673
70	0x3be6b246	0.007040295
71	0x3c14451e	0.009049682
72	0x3c225f7e	0.009910462
73	0xbc237691	-0.009976999
74	0x3be5ad45	0.0070091807
75	0x3b9b564b	0.0047405115
76	0xbbbf5571	-0.005839043
77	0x3b8eb867	0.0043554786
78	0x3c11c939	0.008898073
79	0xbc2209dc	-0.009890046
80	0xbb03655f	-0.0020049436
81	0x3be1f8d8	0.0068961196
82	0x3c21d366	0.0098770615
83	0xbc23d68c	-0.009999882
84	0xbc23d175	-0.009998669
85	0xbc23c353	-0.009995299
86	0xbc2393fc	-0.009984013
87	0xbbbc06a7	-0.0057380977
88	0xbc1fe585	-0.009759312
89	0xbc23d4e9	-0.009999492
90	0xbbafdbd4	-0.0053667817
91	0x3c01c0ec	0.007919531
92	0xbc23aac6	-0.009989446
93	0xbc23a75d	-0.009988633
94	0x3c0e97c2	0.008703174
95	0x3c21864c	0.009858679
96	0x3c23d43e	0.009999333
97	0xbbce317a	-0.006292519
98	0xbc23d39f	-0.009999185
99	0xbb104ad8	-0.0022017267
100	0xbc23af4f	-0.009990527
101	0x3c0d6cc2	0.008631887
102	0x3c113330	0.008862302
103	0xbc23c5a1	-0.009995849
104	0xbc23a511	-0.009988085
105	0xbc23d6c6	-0.009999936
106	0x3c035bfd	0.008017537
107	0x3c1d0cbf	0.009585558
108	0xbc23d242	-0.00999886
109	0xbc2396cd	-0.009984684
110	0xbaa6b171	-0.0012717677
111	0xbc1350f8	-0.008991472
112	0x3bc77ee5	0.006088125
113	0xbc23a9b6	-0.009989193
114	0x3c23d70a	0.01
115	0xbc23a425	-0.009987866
116	0x3c135b64	0.008993957
117	0x3c2271ea	0.009914855
118	0x3c144efe	0.009052036
119	0xbb999945	-0.0046874606
120	0x3bff0772	0.00778287
121	0xbc23d589	-0.009999641
122	0xbc239af8	-0.009985678
123	0x3c0c4951	0.008562402
124	0xbc23b2ff	-0.009991406
125	0x3c1aa2ee	0.0094382595
126	0xbc238346	-0.0099800285
127	0x3c23d6aa	0.00999991

model.14.weight f4 [128]
0	0x3930e23a	0.00016868944
1	0x3a92885b	0.0011179553
2	0x384cc1c7	4.881786e-05
3	0x386af957	5.6022163e-05
4	0x39846593	0.0002525268
5	0x3997c102	0.00028944766
6	0x39bfc904	0.00036580127
7	0xbafc7f15	-0.0019263948
8	0xbb36fe65	-0.0027922627
9	0xbafaa715	-0.0019123281
10	0xbb306ce0	-0.0026920363
11	0x398cf028	0.0002688181
12	0x3bc74e0d	0.0060823024
13	0x3a869602	0.0010268094
14	0xbb2def9b	-0.002654052
15	0x3667a0aa	3.4515201e-06
16	0x3a001393	0.0004885729
17	0xb712eeaf	-8.757851e-06
18	0xb8948bfc	-7.083264e-05
19	0xb957c98a	-0.00020579077
20	0x3bac9847	0.0052671763
21	0x365e87f5	3.3159715e-06
22	0x3803ee24	3.145462e-05
23	0x3bbe6b9a	0.005811167
24	0xba87900f	-0.0010342615
25	0x3bdd327f	0.0067504044
26	0x36c2d3b0	5.806294e-06
27	0x3b2588a8	0.0025258455
28	0xbbadd5d0	-0.0053050295
29	0xb86f19e9	-5.700617e-05
30	0xb981f624	-0.00024788186
31	0xb6958ed0	-4.4571716e-06
32	0xb87dc988	-6.050759e-05
33	0xb49dccae	-2.9392453e-07
34	0x3907c38a	0.00012947447
35	0xba0b16e3	-0.00053058396
36	0xbb81ac56	-0.0039573116
37	0xb9409b3c	-0.00018368376
38	0x3c23d70a	0.01
39	0x3bb09d40	0.0053898394
40	0x38f0cfd3	0.00011482802
41	0xb8ae36bd	-8.307162e-05
42	0x36183be1	2.268462e-06
43	0xbb013e3e	-0.0019720937
44	0xbbe1b892	-0.0068884576
45	0xb7e229cd	-2.6960764e-05
46	0xb7efcee3	-2.858736e-05
47	0xbaf56ad2	-0.0018723852
48	0xbbb94a8f	-0.00565464
49	0x366c9da5	3.5258502e-06
50	0xb6cf6a14	-6.18143e-06
51	0x3bd0a34f	0.006367124
52	0x370c310d	8.356071e-06
53	0xb79f0478	-1.8956358e-05
54	0x3a8855d3	0.0010401554
55	0xba9f9b71	-0.0012177062
56	0x3a567d90	0.00081821624
57	0xbb25bb1e	-0.0025288532
58	0xbba0d2c1	-0.0049079363
59	0x3afd3b51	0.0019320046
60	0x394a104b	0.00019270291
61	0xbc014c1f	-0.007891684
62	0xbc0ed47d	-0.008717653
63	0xb8a102bd	-7.677588e-05
64	0xba0ed472	-0.0005448527
65	0x317b6091	3.6580199e-09
66	0x3b180a15	0.0023199369
67	0xbbed85d4	-0.0072486196
68	0xb8119ad5	-3.4714893e-05
69	0x388d1201	6.7267574e-05
70	0x31eacbd9	6.833471e-09
71	0x35a7d5ac	1.2504656e-06
72	0x3ad39a43	0.0016143996
73	0xb881fafb	-6.197948e-05
74	0xbb42423f	-0.0029641537
75	0xbb481c32	-0.0030534384
76	0xbb0873db	-0.0020821008
77	0x38e36b85	0.000108442306
78	0x3b2ac5a6	0.002605775
79	0x3840abcc	4.5936365e-05
80	0xbb262ba0	-0.0025355592
81	0x3540035c	7.153046e-07
82	0x37aa81f6	2.0326097e-05
83	0x3a546ce1	0.00081033824
84	0xba71b599	-0.00092204806
85	0x3732cfb1	1.0657984e-05
86	0xb9a1dab8	-0.0003087127
87	0xb8f14123	-0.00011503908
88	0xbb3a3449	-0.0028412512
89	0xbb8b3254	-0.004247943
90	0xba9ec91c	-0.0012114379
91	0x3a0310ce	0.00049997575
92	0x3ba0fbe2	0.0049128393
93	0x39336680	0.00017108954
94	0xb6abda45	-5.121607e-06
95	0xb683e687	-3.930941e-06
96	0x3a4f44ce	0.0007906676
97	0xb9d2f85b	-0.0004023936
98	0x3911f8b5	0.00013920928
99	0x3744736c	1.1709384e-05
100	0xb930d4a9	-0.0001686389
101	0xbb0fdf33	-0.0021953105
102	0xb909dc96	-0.00013147513
103	0xbb26a8fd	-0.0025430315
104	0xb94ac8bd	-0.00019339002
105	0xb60a1b4e	-2.0579496e-06
106	0xb87a6e5d	-5.970743e-05
107	0xb6ed26c5	-7.067664e-06
108	0xb707233c	-8.054831e-06
109	0x3b0db4a3	0.002162256
110	0x3880f566	6.149225e-05
111	0x38ae1ef0	8.302729e-05
112	0x398c912a	0.00026811037
113	0x385bc509	5.2397172e-05
114	0x3c23d70a	0.01
115	0x39ddb512	0.00042287313
116	0xbba700eb	-0.005096545
117	0xb9af7e4c	-0.000334727
118	0xbbb28ee5	-0.0054491633
119	0x3934439e	0.00017191327
120	0xbb5487ad	-0.0032429502
121	0x390f7124	0.00013679691
122	0xb891694a	-6.9337504e-05
123	0x380194cc	3.0894575e-05
124	0x3a3f543c	0.00072986237
125	0xb6190be1	-2.280569e-06
126	0xb8f0789c	-0.00011466557
127	0x3bb018ee	0.0053740656

model.14.bias f4 [128]
0	0x00000000	0.0
1	0x00000000	0.0
2	0x00000000	0.0
3	0x00000000	0.0
4	0x00000000	0.0
5	0x00000000	0.0
6	0x00000000	0.0
7	0x00000000	0.0
8	0x00000000	0.0
9	0x00000000	0.0
10	0x00000000	0.0
11	0x00000000	0.0
12	0x00000000	0.0
13	0x00000000	0.0
14	0x00000000	0.0
15	0x00000000	0.0
16	0x00000000	0.0
17	0x00000000	0.0
18	0x00000000	0.0
19	0x00000000	0.0
20	0x00000000	0.0
21	0x00000000	0.0
22	0x00000000	0.0
23	0x00000000	0.0
24	0x00000000	0.0
25	0x00000000	0.0
26	0x00000000	0.0
27	0x00000000	0.0
28	0x00000000	0.0
29	0x00000000	0.0
30	0x00000000	0.0
31	0x00000000	0.0
32	0x00000000	0.0
33	0x00000000	0.0
34	0x00000000	0.0
35	0x00000000	0.0
36	0x00000000	0.0
37	0x00000000	0.0
38	0x00000000	0.0
39	0x00000000	0.0
40	0x00000000	0.0
41	0x00000000	0.0
42	0x00000000	0.0
43	0x00000000	0.0
44	0x00000000	0.0
45	0x00000000	0.0
46	0x00000000	0.0
47	0x00000000	0.0
48	0x00000000	0.0
49	0x00000000	0.0
50	0x00000000	0.0
51	0x00000000	0.0
52	0x00000000	0.0
53	0x00000000	0.0
54	0x00000000	0.0
55	0x00000000	0.0
56	0x00000000	0.0
57	0x00000000	0.0
58	0x00000000	0.0
59	0x00000000	0.0
60	0x00000000	0.0
61	0x00000000	0.0
62	0x00000000	0.0
63	0x00000000	0.0
64	0x00000000	0.0
65	0x00000000	0.0
66	0x00000000	0.0
67	0x00000000	0.0
68	0x00000000	0.0
69	0x00000000	0.0
70	0x00000000	0.0
71	0x00000000	0.0
72	0x00000000	0.0
73	0x00000000	0.0
74	0x00000000	0.0
75	0x00000000	0.0
76	0x00000000	0.0
77	0x00000000	0.0
78	0x00000000	0.0
79	0x00000000	0.0
80	0x00000000	0.0
81	0x00000000	0.0
82	0x00000000	0.0
83	0x00000000	0.0
84	0x00000000	0.0
85	0x00000000	0.0
86	0x00000000	0.0
87	0x00000000	0.0
88	0x00000000	0.0
89	0x00000000	0.0
90	0x00000000	0.0
91	0x00000000	0.0
92	0x00000000	0.0
93	0x00000000	0.0
94	0x00000000	0.0
95	0x00000000	0.0
96	0x00000000	0.0
97	0x00000000	0.0
98	0x00000000	0.0
99	0x00000000	0.0
100	0x00000000	0.0
101	0x00000000	0.0
102	0x00000000	0.0
103	0x00000000	0.0
104	0x00000000	0.0
105	0x00000000	0.0
106	0x00000000	0.0
107	0x00000000	0.0
108	0x00000000	0.0
109	0x00000000	0.0
110	0x00000000	0.0
111	0x00000000	0.0
112	0x00000000	0.0
113	0x00000000	0.0
114	0x00000000	0.0
115	0x00000000	0.0
116	0x00000000	0.0
117	0x00000000	0.0
118	0x00000000	0.0
119	0x00000000	0.0
120	0x00000000	0.0
121	0x00000000	0.0
122	0x00000000	0.0
123	0x00000000	0.0
124	0x00000000	0.0
125	0x00000000	0.0
126	0x00000000	0.0
127	0x00000000	0.0

model.14.running_mean f4 [128]
0	0x3b6bd1bb	0.0035983163
1	0x3ba2bdb9	0.0049664644
2	0xbae345c7	-0.0017339521
3	0x3a6b8325	0.00089840806
4	0x3b220210	0.0024720468
5	0x3bc4c9ba	0.006005493
6	0xbb1c8a25	-0.0023886051
7	0xb9731267	-0.00023181141
8	0xba39fbe7	-0.00070947263
9	0x3c0e39cf	0.008680775
10	0x3c004267	0.007828332
11	0x3c28ce56	0.010303101
12	0xbb169672	-0.0022977856
13	0xbb03c7a4	-0.0020108009
14	0x3bbdc6c9	0.0057915193
15	0x3bd597eb	0.006518354
16	0xba8670ce	-0.0010257007
17	0xbafd7950	-0.0019338522
18	0x3c19df61	0.009391637
19	0xbafc2dbb	-0.0019239703
20	0x3bb4537b	0.0055031157
21	0xbb0e7413	-0.0021736666
22	0xba83367e	-0.0010010747
23	0xbb0fdc13	-0.0021951243
24	0xbad6567c	-0.0016352679
25	0x3c1d56c0	0.009603202
26	0x3c28a2a0	0.010292679
27	0xbafa3fed	-0.0019092538
28	0x3c38f7c6	0.011289543
29	0x3c2b4e9b	0.010455753
30	0xb819a6ee	-3.6633508e-05
31	0x3c0abf55	0.008468469
32	0xbb0e7019	-0.0021734296
33	0xbb009189	-0.0019617996
34	0xb9717fbf	-0.0002303114
35	0x3c16e364	0.009209488
36	0xbb0d4814	-0.0021557854
37	0xbb129470	-0.0022366308
38	0xbb18fd37	-0.0023344287
39	0x3bc99488	0.0061517395
40	0xbacf9587	-0.0015837409
41	0x3c21d28a	0.009876857
42	0xbafaad01	-0.0019125046
43	0xbacf3ec3	-0.0015811551
44	0xbb0b6c9c	-0.0021274453
45	0xb988c54e	-0.00026086945
46	0x3b314e74	0.0027054818
47	0xbac58e22	-0.0015072266
48	0x3c0bf846	0.00854308
49	0x3be9d0dd	0.007135494
50	0xbb0ee9fe	-0.002180695
51	0xbaba09a8	-0.0014193552
52	0xbaf42e2b	-0.0018629482
53	0xb9af3b64	-0.0003342285
54	0xbb015ddb	-0.001973978
55	0xbae9493f	-0.0017798318
56	0xbb0e5972	-0.0021720794
57	0x3c05b7aa	0.008161465
58	0xbb047016	-0.002020841
59	0xba0246fa	-0.0004969683
60	0xbaddae94	-0.001691299
61	0xbae83e49	-0.0017718758
62	0xbac1b798	-0.0014779447
63	0x3bb0580f	0.005381591
64	0xbb0d1cb9	-0.0021532013
65	0xbab0d09b	-0.0013489904
66	0xbb15a11e	-0.002283163
67	0x3c129d0f	0.0089485785
68	0x3c1f17da	0.0097102765
69	0xbb15f319	-0.0022880493
70	0x3b8d2b12	0.004308113
71	0x3c0c82ef	0.008576139
72	0x3c2339fe	0.009962557
73	0xbb049477	-0.0020230094
74	0x3c44840f	0.011994376
75	0x3b04272b	0.0020164947
76	0xba8b9951	-0.001065055
77	0x3b93f597	0.0045153606
78	0x3c0010ec	0.0078165345
79	0xbac81bef	-0.0015267114
80	0xb9ff1b27	-0.0004865762
81	0x3b914f1c	0.0044344794
82	0x3c295d33	0.010337162
83	0xbb11df4e	-0.0022258344
84	0xbb00f4fb	-0.001967727
85	0xbb118856	-0.0022206507
86	0xbb00e82f	-0.0019669642
87	0xbabcf753	-0.001441697
88	0xbb0052c1	-0.0019580575
89	0xbafbec85	-0.0019220269
90	0xba00be58	-0.0004911176
91	0x3bca0c53	0.00616602
92	0xbaf12c02	-0.0018399956
93	0xbaf03464	-0.001832616
94	0x3c0772d2	0.008267121
95	0x3c21a565	0.009866093
96	0x3c1b1404	0.009465221
97	0xba9fdc8a	-0.0012196463
98	0xbae6b316	-0.0017600979
99	0xba23195c	-0.00062217354
100	0xbb0d67fb	-0.002157687
101	0x3bcb3c9b	0.006202293
102	0x3c2a8f3e	0.010410128
103	0xbb125aca	-0.0022331947
104	0xbb0dd9db	-0.0021644745
105	0xbb37636d	-0.0027982846
106	0x3bfdbb72	0.0077432925
107	0x3c0855c8	0.008321233
108	0xbb10a466	-0.0022070645
109	0xbb039333	-0.0020076751
110	0xba466912	-0.0007568757
111	0xbad3e31a	-0.0016165704
112	0x3bcf008b	0.0063172034
113	0xbb0d4925	-0.002155849
114	0x3c3707c2	0.011171283
115	0xbafc6bba	-0.0019258179
116	0x3bee11d9	0.007265311
117	0x3c1ad0c4	0.009449188
118	0x3c0b9b2f	0.008520885
119	0xba5dd48a	-0.0008462152
120	0x3b8376d2	0.004011967
121	0xbb004097	-0.0019569749
122	0xbb0674d7	-0.002051642
123	0x3bf81e54	0.007571975
124	0xbb0681b7	-0.0020524093
125	0x3c2cab17	0.010538838
126	0xbafb9140	-0.0019193068
127	0x3b81685c	0.003949208
