models/wgangp_discriminator.pth (torch, 433639 bytes, 21 tensors)

model.0.weight f4 [16, 1, 3, 3]
-0.108228244 -0.16893896 -0.1472292 0.110572934 -0.1156503 0.008488571 -0.11479359 0.07105743
-0.07798111 0.284291 0.27600524 0.077516 0.3636036 0.10390641 -0.028266557 0.32996085
0.07789691 -0.024247682 0.026354155 -0.02362634 -0.014337529 -0.09365901 0.28639278 0.25122455
0.09758576 0.0021209365 -0.110162824 0.14376818 0.18783355 -0.24902351 0.15282075 0.08892148
-0.012492795 0.020940011 0.0020702183 0.10833409 -0.10859934 0.22990187 0.12139085 0.0017039787
0.025151806 0.2199592 -0.0066880826 0.17099838 -0.15194307 0.19187492 -0.064454995 -0.1102503
0.054763507 -0.08930463 -0.027106188 0.13231067 -0.17041594 -0.25202045 0.18080573 0.22524208
-0.08232249 -0.13906056 -0.15594912 -0.14324288 0.047115676 -0.102893785 -0.09595282 0.15825868
-0.28256527 -0.24220344 -0.028705886 -0.2851075 -0.2664317 0.029174265 -0.035427503 -0.22302286
0.0354219 -0.036750503 -0.08840236 -0.066645354 0.25569507 0.1713984 0.10512474 0.23218672
-0.1134303 0.1477758 0.12459094 0.13027677 0.017428285 0.29650706 -0.20193323 -0.2332181
0.14812844 0.07732312 0.09516379 -0.034787342 0.19817051 0.1998446 0.06964078 0.08973362
0.022024449 -0.06490928 0.1382729 -0.41387832 -0.11301798 -0.12586488 -0.05093294 0.009164647
-0.052097786 0.19704846 0.05864316 0.23105365 -0.16157277 -0.15988983 0.22269228 -0.09637337
0.20298183 0.330596 0.03678188 -0.006621561 0.12078628 -0.0062952247 0.4324573 0.44355938
-0.16233034 0.065450154 0.03237046 -0.16423048 -0.30744892 -0.3372827 -0.11872593 0.049376894
-0.13552897 -0.08462126 0.066202365 0.06846081 0.23740523 0.27115798 0.21945372 -0.17434219
0.11069174 0.20997307 0.17786178 -0.25360867 0.08151657 0.24347141 0.21161625 0.008751735
00000000: c5a6 ddbd 56fe 2cbe 40c3 16be 1074 e23d
00000010: 11da ecbd a613 0b3c e718 ebbd 8f86 913d
00000020: 8fb4 9fbd 978e 913e 8f50 8d3e b5c0 9e3d
00000030: 402a ba3e e2cc d43d 448f e7bc a1f0 a83e
00000040: 6a88 9f3d 13a3 c6bc abe4 d73c 078c c1bc
00000050: f5e7 6abc 4cd0 bfbd 13a2 923e 81a0 803e
00000060: 0bdb c73d 69ff 0a3b 0c9d e1bd f737 133e
00000070: 7057 403e 0500 7fbe 0b7d 1c3e 771c b63d
00000080: 94ae 4cbc 638a ab3c 80ac 073b 43de dd3d
00000090: 5569 debd 656b 6b3e c49b f83d 0a58 df3a
000000a0: 290b ce3c fc3c 613e b427 dbbb 331a 2f3e
000000b0: f796 1bbe dc7a 443e fb00 84bd e9ca e1bd
000000c0: b34f 603d 59e5 b6bd cc0d debc 737c 073e
000000d0: 8481 2ebe d308 81be 2325 393e dca5 663e
000000e0: b298 a8bd e465 0ebe 20b1 1fbe 43ae 12be
000000f0: 5efc 403d fab9 d2bd e982 c4bd 900e 223e
00000100: 65ac 90be 2e04 78be 9b28 ebbc 9cf9 91be
00000110: bc69 88be defe ee3c 6e1c 11bd 1b60 64be
00000120: 8e16 113d b287 16bd 4c0c b5bd 5c7d 88bd
00000130: 77ea 823e 1083 2f3e a44b d73d 5bc2 6d3e
00000140: 254e e8bd 8a52 173e 8929 ff3d 4667 053e
00000150: c3c5 8e3c c6cf 973e 96c7 4ebe bad0 6ebe
00000160: fbae 173e 955b 9e3d 3ce5 c23d 2c7d 0ebd
00000170: 36ed 4a3e 10a4 4c3e d39f 8e3d 43c6 b73d
00000180: 9e6c b43c 28ef 84bd 6997 0d3e dce7 d3be
00000190: f875 e7bd b9e2 00be 0f9f 50bd 5127 163c
000001a0: 7d64 55bd 12c7 493e cf33 703d 5499 6c3e
000001b0: 5573 25be 29ba 23be 7209 643e 675f c5bd
000001c0: 78da 4f3e e143 a93e 99a8 163d aef9 d8bb
000001d0: cc5e f73d 2c48 cebb 0b6b dd3e 371a e33e
000001e0: ed39 26be bb0a 863d e396 043d 092c 28be
000001f0: f269 9dbe 51b0 acbe 9526 f3bd 6d3f 4a3d
00000200: 1bc8 0abe e94d adbd 1b95 873d 2e35 8c3d
00000210: 5b1a 733e 38d5 8a3e 7ab8 603e c286 32be
00000220: 5ab2 e23d 2e03 573e 6621 363e ffd8 81be
00000230: 29f2 a63d 9250 793e eeb1 583e 7063 0f3c

model.0.bias f4 [16]
0.3820902 -0.08386654 0.30124494 0.20357262 0.17702909 0.23339452 0.1948197 0.11929975
0.21886964 0.23628692 0.3261046 0.21851283 0.21608149 0.00041107295 0.42252633 0.29644045
00000000: 54a1 c33e 38c2 abbd c73c 9a3e 5775 503e
00000010: 1d47 353e f9fe 6e3e d17e 473e 6d53 f43d
00000020: 5d1f 603e 33f5 713e 2ff7 a63e d4c1 5f3e
00000030: 7744 5d3e 4785 d739 5f55 d83e 0bc7 973e

model.3.weight f4 [32, 16, 3, 3]
-0.035503417 -0.02422636 0.008058145 -0.031243438 0.015520929 -0.002796875 -0.07247275 0.038736552
-0.042341776 0.037604008 0.06742541 -0.01299888 0.088403255 0.04483396 -0.024394063 0.11069938
0.1135103 -0.056198068 -0.037274912 0.065378375 -0.027254751 0.11246148 -0.101814575 -0.06074819
-0.012927355 0.07280019 -0.06287798 0.0076684854 0.041163757 0.03251412 -0.032670107 0.005421843
-0.021474661 0.07660152 0.045985024 -0.012474544 -0.0041005802 0.03539794 0.07804667 0.034191072
0.05242451 0.06478408 0.032468095 0.03325147 -0.026767572 -0.08501442 -0.038359348 -0.028020356
-0.12625974 -0.04560358 0.113368824 -0.06340278 -0.030659068 -0.010661152 -0.046851743 -0.043610007
0.027826477 -0.088653386 0.06810641 0.15408902 -0.16560413 -0.15072945 -0.010677426 0.039917827
0.13310339 0.04941965 0.1990704 0.19924699 0.052903574 0.1384684 0.10385158 0.065456465
0.09760452 0.01579035 0.031388693 -0.06252678 0.037901532 0.00068136625 0.074541934 -0.023873733
0.03273131 0.027405955 0.04422204 0.037976693 -0.035799745 0.011508584 -0.005714742 -0.00042153813
0.006525961 0.026600996 -0.050443105 -0.014452692 0.07506945 -0.02958818 0.064252526 -0.025160331
-0.027864784 0.01547425 0.049418967 -0.0958528 0.033720985 -0.025473554 0.069120206 -0.016058143
-0.05187975 0.048073705 -0.0142158 -0.003174395 0.031690553 -0.026197812 -0.018390242 -0.027380474
0.059087727 0.0718529 -0.043584466 -0.003925009 0.025904372 -0.037442233 0.051136002 -0.09331285
-0.10119262 0.007857207 -0.14669031 0.19110307 0.1874761 0.18482052 0.04965641 -0.007507162
-0.061463945 -0.010479619 -0.038163967 -0.11576635 0.034262177 0.065442964 0.06574689 -0.016502667
-0.081948966 0.01779834 -0.09634852 -0.035553094 -0.031395577 0.028865859 0.081766814 0.016004402
0.002320035 0.058093604 0.14963312 -0.030103797 -0.026615879 0.09641726 0.057657704 -0.047701444
-0.050322853 0.028332395 -0.027151555 0.07551906 0.00755619 0.078392245 -0.04235155 -0.033582374
0.044348024 0.04106346 0.012182401 -0.07436472 -0.02608664 -0.020872226 -0.051816914 -0.10569855
0.08309948 -0.015711347 -0.017875804 -0.037570115 -0.08162401 -0.004103636 0.005062804 -0.059004705
-0.07894407 0.05888691 0.08260893 0.072462365 0.014949026 -0.044701487 -0.05305588 -0.058442924
-0.060709856 0.06298286 0.016183125 0.0825897 0.008187039 0.021760024 0.14434396 0.103118576
0.08252683 0.13360666 0.09932954 0.065084554 -0.051813044 -0.03759581 0.01849197 0.11147803
0.123203464 0.050574854 0.06805737 0.12745129 -0.11168645 0.026836466 0.0589971 0.014162426
-0.078268915 -0.032713503 -0.07072226 -0.1526799 0.0010937175 -0.077439286 -0.055983856 0.026705945
-0.07253432 -0.012781659 -0.04546448 0.019572483 -0.086659014 -0.054095827 0.06890342 0.0777323
0.083045416 0.01639814 -0.05786297 -0.09688779 -0.01934216 -0.08154245 -0.009785781 0.011181319
0.022232205 0.02767904 -0.05901754 0.0008601367 -0.034004983 -0.06344425 -0.0009692771 0.0766658
0.017923715 0.0052857515 0.05585833 0.09498759 0.048566084 0.07152202 0.08439069 0.08523353
0.1760093 -0.019981142 0.110508844 0.057808254 -0.050181977 -0.013836254 0.059106823 -0.0692188
00000000: 086c 11bd 5c76 c6bc 4f06 043c 3df2 ffbc
00000010: 7f4b 7e3c c74b 37bb 986c 94bd 38aa 1e3d
00000020: 926e 2dbd a906 1a3d 5516 8a3d 41f9 54bc
00000030: c40c b53d d0a3 373d 0fd6 c7bc 5bb6 e23d
00000040: 1778 e83d f22f 66bd 94ad 18bd 19e5 853d
00000050: 5b45 dfbc 3452 e63d 2984 d0bd 18d3 78bd
00000060: 42cd 53bc 4418 953d 2cc6 80bd eb47 fb3b
00000070: 549b 283d 872d 053d 17d1 05bd b7a9 b13b
00000080: a1eb afbc 42e1 9c3d cb5a 3c3d 0862 4cbc
00000090: 295e 86bb 6efd 103d efd6 9f3d f00b 0c3d
000000a0: 15bb 563d 84ad 843d 44fd 043d b232 083d
000000b0: ab47 dbbc 0a1c aebd b11e 1dbd f28a e5bc
000000c0: 3c4a 01be d2ca 3abd ea2d e83d 51d9 81bd
000000d0: ba28 fbbc 1dac 2ebc 9de7 3fbd 68a0 32bd
000000e0: 5af4 e33c e88f b5bd 607b 8b3d 83c9 1d3e
000000f0: 2194 29be d258 1abe 5ff0 2ebc e080 233d
00000100: 414c 083e 426c 4a3d 1cd9 4b3e 6707 4c3e
00000110: 6bb1 583d a9ca 0d3e 23b0 d43d 0a0e 863d
00000120: e1e4 c73d c45a 813c 6e91 003d 0a0e 80bd
00000130: a33e 1b3d b79d 323a 71a9 983d d992 c3bc
00000140: 4411 063d 7482 e03c 2b22 353d 738d 1b3d
00000150: c1a2 12bd 808e 3c3c bb42 bbbb e401 ddb9
00000160: bbd7 d53b 55ea d93c 6e9d 4ebd fcca 6cbc
00000170: 03be 993d e962 f2bc d496 833d 0a1d cebc
00000180: b044 e4bc b587 7d3c 8b6b 4a3d 794e c4bd
00000190: 041f 0a3d eaad d0bc e58e 8d3d 5e8c 83bc
000001a0: dc7f 54bd efe8 443d 63e9 68bc 8309 50bb
000001b0: f4cd 013d cb9c d6bc 22a7 96bc 044d e0bc
000001c0: f905 723d 9d27 933d a085 32bd 5d9d 80bb
000001d0: 6835 d43c 075d 19bd fc73 513d cf1a bfbd
000001e0: 143e cfbd 84bb 003c fc35 16be 86b0 433e
000001f0: bcf9 3f3e 9741 3d3e 8564 4b3d a4fe f5bb
00000200: 9ec1 7bbd b5b2 2bbc d251 1cbd e816 edbd
00000210: 7f56 0c3d f606 863d 4ea6 863d 9a30 87bc
00000220: dcd4 a7bd d3cd 913c 5f52 c5bd 1fa0 11bd
00000230: a698 00bd 1878 ec3c 5c75 a73d aa1b 833c
00000240: ba0b 183b 8ff3 6d3d 6d39 193e 3d9c f6bc
00000250: 8b09 dabc 6a76 c53d 7c2a 6c3d 9762 43bd
00000260: 561f 4ebd 5719 e83c f06c debc bda9 9a3d
00000270: ea99 f73b 1d8c a03d d278 2dbd ac8d 09bd
00000280: 46a6 353d 2932 283d b198 473c 884c 98bd
00000290: a6b3 d5bc 3bfc aabc f93d 54bd 7b78 d8bd
000002a0: 0f30 aa3d 15b5 80bc 4770 92bc 1fe3 19bd
000002b0: 7d2a a7bd cb77 86bb e1e5 a53b ebae 71bd
000002c0: 6ead a1bd 6733 713d df2e a93d 2667 943d
000002d0: c2ec 743c e818 37bd 1f51 59bd d961 6fbd
000002e0: e6aa 78bd 28fd 803d 7992 843c ca24 a93d
000002f0: ee22 063c 1442 b23c e7ce 133e d52f d33d
00000300: d403 a93d 2fd0 083e 496d cb3d 0d4b 853d
00000310: ea39 54bd 10fe 19bd 797c 973c 984e e43d
00000320: 1952 fc3d 9427 4f3d aa61 8b3d 9782 023e
00000330: debb e4bd 26d8 db3c f1a6 713d 8509 683c
00000340: 744b a0bd 98fe 05bd d5d6 90bd 1f58 1cbe
00000350: 125b 8f3a 7d98 9ebd 544f 65bd 6dc6 da3c
00000360: e08c 94bd 2a6a 51bc f638 3abd 7956 a03c
00000370: 487a b1bd 9693 5dbd 3c1d 8d3d 1d32 9f3d
00000380: b713 aa3d 6455 863c b901 6dbd 1b6d c6bd
00000390: 7373 9ebc baff a6bd 8a54 20bc da31 373c
000003a0: 5020 b63c 27bf e23c 60bc 71bd cc7a 613a
000003b0: cf48 0bbd 0fef 81bd 1617 7eba f502 9d3d
000003c0: c1d4 923c 1934 ad3b b4cb 643d db88 c23d
000003d0: 3bed 463d 237a 923d 07d5 ac3d eb8e ae3d
000003e0: c83b 343e 7eaf a3bc 7652 e23d 59c8 6c3d
000003f0: 9e8b 4dbd 75b1 62bc ff19 723d 96c2 8dbd

model.3.bias f4 [32]
-0.042755183 0.168914 0.0042708553 0.09671663 0.014172612 0.08422104 0.023782464 0.005551267
-0.0050848043 0.07531666 0.048348043 0.03787495 0.08409811 0.04429556 0.028281132 0.19105643
0.20983663 0.06326886 -0.070849575 -0.03576239 0.022258893 -0.06505778 0.098195955 -0.01857906
-0.19032589 -0.04405795 0.006444209 0.090089805 0.0028415152 0.02548725 -0.02062907 -0.0483762
00000000: 0f20 2fbd cbf7 2c3e 88f2 8b3b 5e13 c63d
00000010: 3e34 683c 157c ac3d 71d3 c23c 67e7 b53b
00000020: 6e9e a6bb 9f3f 9a3d 9908 463d c322 1b3d
00000030: a13b ac3d 436f 353d d5ad e73c 4ca4 433e
00000040: 6adf 563e 1b93 813d 9519 91bd 957b 12bd
00000050: 4858 b63c 033d 85bd f61a c93d 1d33 98bc
00000060: cae4 42be 1c76 34bd f129 d33b 0181 b83d
00000070: b738 3a3b a3ca d03c 4cfe a8bc 1f26 46bd

model.6.weight f4 [32]
1.0028251 1.0048093 1.0105715 1.0393909 0.9746228 0.9843445 0.9724301 1.0002879
1.2157425 1.0196583 1.021408 0.9706273 0.95510995 1.0311711 1.0125258 1.0048425
1.024323 1.0239248 1.0288091 0.9715621 0.98999184 1.0401229 1.0423671 1.0492018
0.99792945 0.92065835 0.97422844 0.93369794 0.99552387 0.9331858 0.9759968 1.0222052
00000000: 935c 803f 979d 803f 685a 813f c30a 853f
00000010: e180 793f 00fe 7b3f 2ef1 783f 6f09 803f
00000020: 739d 9b3f 2a84 823f 7fbd 823f 087b 783f
00000030: 1682 743f 6afd 833f 729a 813f ae9e 803f
00000040: 041d 833f f80f 833f 04b0 833f 4bb8 783f
00000050: 1b70 7d3f bf22 853f 496c 853f 3f4c 863f
00000060: 4e78 7f3f 44b0 6b3f 0967 793f d406 6f3f
00000070: a7da 7e3f 44e5 6e3f edda 793f 9fd7 823f

model.6.bias f4 [32]
-0.12354874 -0.27644625 -0.12933418 0.0536347 -0.2433416 -0.080747604 0.21613595 -0.2294276
0.08973647 0.08982675 -0.083841376 0.3045553 0.23918952 -0.068276204 -0.1067655 0.22078077
0.30247107 -0.3390716 -0.007895714 -0.08839134 -0.14392775 0.2638936 -0.064109914 0.24900116
-0.08593862 -0.33475667 -0.21329091 -0.17874652 0.19237465 -0.26916596 0.19600746 0.17609835
00000000: 1f07 fdbd 5d8a 8dbe 2e70 04be 0fb0 5b3d
00000010: 8a2e 79be 005f a5bd be52 5d3e 12ef 6abe
00000020: c1c7 b73d 16f7 b73d 07b5 abbd acee 9b3e
00000030: 19ee 743e 65d4 8bbd dfa7 dabd 5b14 623e
00000040: 7ddd 9a3e cb9a adbe 065d 01bc 8506 b5bd
00000050: cc61 13be 101d 873e 0f4c 83bd 29fa 7e3e
00000060: 9600 b0bd 3a65 abbe ef68 5abe 5409 37be
00000070: dcfd 443e 1fd0 89be 2eb6 483e 2053 343e

model.6.running_mean f4 [32]
0.23495361 0.36123046 0.1413296 1.2355183 0.84103245 1.0083622 0.759309 0.29286942
0.05412408 0.5777759 0.7694729 0.43926558 0.4639926 0.95827967 0.53808635 0.3799451
0.07942995 0.23720066 0.11337506 0.6582222 0.1250289 0.10676041 0.39688364 0.06084316
0.23004392 0.44488764 0.19788128 0.31146285 0.5512186 0.59086066 0.44801462 0.97824943
00000000: ae97 703e 33f3 b83e b5b8 103e 7725 9e3f
00000010: e74d 573f 0312 813f 1362 423f fbf2 953e
00000020: 36b1 5d3d 1fe9 133f 2dfc 443f 6be7 e03e
00000030: 7090 ed3e d151 753f 07c0 093f 2a88 c23e
00000040: 2bac a23d bbe4 723e 2f31 e83d 4081 283f
00000050: 9307 003e 34a5 da3d 5534 cb3e ad36 793d
00000060: a290 6b3e 50c8 e33e 64a1 4a3e 0f78 9f3e
00000070: aa1c 0d3f a542 173f 2c62 e53e 8e6e 7a3f

model.6.running_var f4 [32]
0.10014975 0.102431685 0.041170206 1.0934964 0.7074888 0.84547627 0.43872732 0.06424888
0.065145314 0.31243175 0.48404837 0.13001353 0.21125159 0.6745229 0.31264037 0.11711836
0.037207514 0.05818997 0.078307435 0.29827777 0.030156096 0.037716657 0.19517586 0.015675971
0.113581344 0.30387807 0.05106009 0.084625006 0.23832838 0.4959976 0.12560076 0.7103524
00000000: 501b cd3d b4c7 d13d 17a2 283d b1f7 8b3f
00000010: fc1d 353f 2271 583f dea0 e03e eb94 833d
00000020: e86a 853d 0ef7 9f3e 30d5 f73e 4422 053e
00000030: 5652 583e 88ad 2c3f 6612 a03e c0db ef3d
00000040: e866 183d 9b58 6e3d a65f a03d ddb7 983e
00000050: eb09 f73c c87c 1a3d 2edc 473e e56a 803c
00000060: 569d e83d e895 9b3e 6324 513d e04f ad3d
00000070: 5b0c 743e 66f3 fd3e 7c9d 003e a8d9 353f

model.7.weight f4 [64, 32, 3, 3]
0.044660255 0.024743488 0.04685253 -0.025754357 0.03271192 0.060683988 0.017808178 -0.044802886
-0.014662032 -0.06826961 0.007754738 -0.012670695 -0.0031488156 -0.039129816 0.030923532 -0.050583325
-0.053582497 -0.034974538 -0.08877644 -0.06612039 -0.10949544 -0.06934905 -0.07114501 -0.07540337
-0.06691688 -0.07394774 -0.048241366 0.027926005 -0.04566956 0.020012407 -0.033890896 0.0034951698
-0.055936933 -0.0124222515 0.015543506 -0.037015874 -0.003290941 -0.039930385 0.0123822 -0.046024375
0.052505795 0.010273346 -0.011205302 -0.032089986 -0.011890934 -0.0081416555 0.02258964 -0.012074424
-0.08749731 -0.025952097 0.02105971 -0.03497024 0.056953516 -0.063321985 -0.022101138 -0.017066661
-0.06266296 -0.07067155 0.0024098172 -0.050897334 0.015984565 -0.0075324588 -0.07365819 -0.01737293
-0.013634752 0.026597463 -0.064562194 -0.051705316 0.007258832 -0.101815484 -0.05528802 -0.09135468
0.061621726 0.071660295 0.048336394 0.043798923 0.10042428 0.11927668 0.032284915 0.036691014
0.11380096 -0.028761353 0.011084894 0.048251987 -0.10565788 -0.013106764 -0.004454261 -0.023314334
0.022540526 0.00756445 0.0331462 0.02140389 -0.055360075 0.036700107 -0.0048107924 -0.068979554
-0.03676197 0.0012141535 -0.014577889 -0.0006229387 -0.03138764 0.04980613 0.010490314 0.012378728
0.0336374 0.009049738 0.056203548 0.021370929 -0.062710166 -0.066068806 0.035770383 -0.0023841397
0.014267709 -0.030505018 -0.0066165538 0.01617417 -0.046165008 -0.079315454 -0.10081008 -0.0040106773
-0.06873766 -0.028834026 -0.0728258 -0.026236575 -0.091516666 -0.072266884 -0.0040079835 0.0589242
-0.022156475 -0.036957003 -0.051652398 0.013669558 -0.025768666 -0.036354877 0.02756634 0.053650323
-0.03400108 0.014082367 0.020686802 0.019440364 0.04987689 -0.01171831 0.08719999 0.004511083
0.15206 0.10891823 0.062345892 0.18585068 0.11752017 0.13202806 0.114907704 0.091037095
0.08007877 -0.076257624 0.048004273 -0.017828716 -0.02366661 0.0196381 -0.08491501 -0.052652683
0.05042623 -0.08663594 0.03604619 0.006232338 0.09843863 0.019741379 0.02399049 0.038667344
0.015164637 0.10229124 0.06280359 0.009092659 -0.02721642 -0.015792126 -0.012134224 -0.030349623
-0.025203332 -0.0068473676 0.0652356 -0.004610565 0.02945663 0.035603203 0.06183776 -0.019858731
-0.03689047 0.020583563 0.018294387 0.056487437 -0.0122192735 0.04856478 0.092144385 0.13536604
0.06297933 0.118030414 0.1084991 -0.0073429244 -0.06244628 0.054270737 0.07192564 -0.050100584
0.045660954 0.0027939773 -0.033662647 -0.030855512 -0.015842952 0.061815184 -0.01124437 0.09357016
0.029126104 -0.0040615 0.07949205 0.06795493 0.0027691033 0.06545092 0.054175843 -0.015339483
0.043203693 -0.02789563 -0.004360955 0.023116704 0.03151216 0.016543651 0.0010259197 0.03385223
-0.028158575 -0.026170684 -0.012932135 0.027205307 -0.00028147173 -0.029949049 -0.02857142 -0.03752924
0.00066803035 -0.029786656 0.028965676 0.054740295 0.0654092 -0.077860825 -0.007569421 0.0530724
-0.058526546 0.06390578 0.031637404 -0.059015356 -0.040714987 0.00801452 -0.0015076223 0.03638251
0.035224367 -0.019454882 0.04027573 0.023969373 -0.039112184 -0.026418176 0.010668264 -0.0006404844
00000000: aced 363d dbb2 ca3c 70e8 3f3d cdfa d2bc
00000010: effc 053d c68f 783d 75e2 913c 3b83 37bd
00000020: 0539 70bc f0d0 8bbd 751b fe3b bf98 4fbc
00000030: 5c5c 4ebb 9646 20bd 5953 fd3c 7630 4fbd
00000040: 5279 5bbd 7641 0fbd 6cd0 b5bd 216a 87bd
00000050: 253f e0bd e006 8ebd 7ab4 91bd 156d 9abd
00000060: b80b 89bd ea71 97bd bd98 45bd 14c5 e43c
00000070: 0110 3bbd 0ff1 a33c 2ed1 0abd 380f 653b
00000080: 201e 65bd b386 4bbc 30aa 7e3c f59d 17bd
00000090: d4ac 57bb 0b8e 23bd b6de 4a3c 0e84 3cbd
000000a0: 5110 573d 8951 283c 7196 37bc ca70 03bd
000000b0: 31d2 42bc 9464 05bc e90d b93c ced3 45bc
000000c0: ca31 b3bd 7e99 d4bc 6a85 ac3c f43c 0fbd
000000d0: 1748 693d f5ae 81bd 720d b5bc 62cf 8bbc
000000e0: 7055 80bd 3fbc 90bd 06ee 1d3b b979 50bd
000000f0: 10f2 823c d8d2 f6bb 1bda 96bd ad51 8ebc
00000100: 4b64 5fbc ece2 d93c 2f39 84bd f4c8 53bd
00000110: 7fdb ed3b a384 d0bd b175 62bd 2a18 bbbd
00000120: 1067 7c3d a2c2 923d 62fc 453d 8066 333d
00000130: 3fab cd3d 5547 f43d 303d 043d 5149 163d
00000140: 7a10 e93d ee9c ebbc 6a9d 353c e0a3 453d
00000150: 2963 d8bd c1bd 56bc 0df5 91bb b4fd bebc
00000160: e9a6 b83c 35df f73b 4fc4 073d 3657 af3c
00000170: 3fc1 62bd da52 163d daa3 9dbb 2745 8dbd
00000180: b893 16bd 3b24 9f3a 19d8 6ebc b54c 23ba
00000190: 5390 00bd 8301 4c3d 91df 2b3c 26d0 4a3c
000001a0: 5fc7 093d 5a45 143c b135 663d 1612 af3c
000001b0: 306e 80bd 154f 87bd f783 123d 3a3f 1cbb
000001c0: 1cc3 693c a9e5 f9bc adcf d8bb b17f 843c
000001d0: 8517 3dbd 2470 a2bd 8475 cebd 006c 83bb
000001e0: 55c6 8cbd 5635 ecbc b125 95bd 16ee d6bc
000001f0: 176d bbbd a900 94bd 6755 83bb 805a 713d
00000200: 7f81 b5bc 3a60 17bd 7791 53bd 48f6 5f3c
00000210: cf18 d3bc dae8 14bd ced2 e13c 71c0 5b3d
00000220: b744 0bbd bab9 663c 5e77 a93c 6641 9f3c
00000230: b64b 4c3d 28fe 3fbc e995 b23d b5d1 933b
00000240: 9eb5 1b3e 8510 df3d 685e 7f3d a44f 3e3e
00000250: 6aae f03d 5d32 073e bb54 eb3d a871 ba3d
00000260: 5700 a43d f52c 9cbd 21a0 443d 870d 92bc
00000270: 7ae0 c1bc 15e0 a03c ece7 adbd 57aa 57bd
00000280: bc8b 4e3d 2f6e b1bd 2ba5 133d a438 cc3b
00000290: 319a c93d acb8 a13c b487 c43c a661 1e3d
000002a0: 1975 783c 127e d13d 2b9f 803d 60f9 143c
000002b0: f8f4 debc 7d5e 81bc a0ce 46bc c69f f8bc
000002c0: 3877 cebc e25f e0bb 3e9a 853d 3914 97bb
000002d0: 084f f13c aad4 113d 9749 7d3d c7ae a2bc
000002e0: 761a 17bd dc9e a83c 1cde 953c 5f5f 673d
000002f0: 5933 48bc ddeb 463d 32b6 bc3d 659d 0a3e
00000300: 4ffb 803d eeb9 f13d c734 de3d ea9c f0bb
00000310: acc7 7fbd fe4a 5e3d c04d 933d 4536 4dbd
00000320: fb06 3b3d 291b 373b d8e1 09bd b3c4 fcbc
00000330: 14c9 81bc eb31 7d3d 4e3a 38bc b6a1 bf3d
00000340: de99 ee3c 5516 85bb bacc a23d f42b 8b3d
00000350: d879 353b 220b 863d 7de7 5d3d 7452 7bbc
00000360: 5bf6 303d 6085 e4bc 58e6 8ebb 3e5f bd3c
00000370: e512 013d 8d86 873c 2778 863a a3a8 0a3d
00000380: d0ac e6bc e763 d6bc 4ee1 53bc aadd de3c
00000390: 7f92 93b9 b557 f5bc 9c0e eabc 43b8 19bd
000003a0: c21e 2f3a 2503 f4bc 6d49 ed3c 5c37 603d
000003b0: 42f5 853d 7f75 9fbd e808 f8bb 7262 593d
000003c0: 88b9 6fbd 09e1 823d 3996 013d 16ba 71bd
000003d0: c2c4 26bd 554f 033c 699b c5ba d405 153d
000003e0: 6d47 103d d85f 9fbc 2af8 243d 6b5b c43c
000003f0: 1934 20bd ee6a d8bc f1c9 2e3c 2ee6 27ba

model.7.bias f4 [64]
0.06683551 0.08353484 0.19379127 0.18023999 0.056663 0.13847715 0.1541934 0.12399374
0.104760505 0.13684303 0.022501228 0.20577228 0.19269845 0.1717338 0.095795065 0.034945685
0.07805237 0.02061853 0.1434663 0.13125941 0.11734629 0.10296739 0.13907653 0.019787183
0.20322745 0.062005658 0.018666258 0.096972555 0.12710293 0.16743504 0.06559035 0.15311109
0.076445065 0.26095623 0.1852666 0.01276963 0.01678959 0.14368404 0.15186056 0.078585304
0.007741734 0.18341242 0.11798356 0.10752398 0.15228543 0.120380335 0.10603458 0.05597188
0.13142952 0.14195386 0.17376132 0.15671068 0.09927615 0.12808026 0.20822641 0.0951682
0.12823515 0.12801597 0.139085 0.113797694 0.16404606 0.14286642 0.017363824 0.21280338
00000000: 0ee1 883d 5014 ab3d 3871 463e d590 383e
00000010: 7617 683d f4cc 0d3e e0e4 1d3e 6ef0 fd3d
00000020: ad8c d63d 9420 0c3e 7f54 b83c f8b5 523e
00000030: be52 453e fcda 2f3e 3430 c43d 3523 0f3d
00000040: ecd9 9f3d 31e8 a83c d4e8 123e de68 063e
00000050: 4053 f03d 91e0 d23d 146a 0e3e bb18 a23c
00000060: db1a 503e a5f9 7d3d fbe9 983c 8c99 c63d
00000070: 4527 023e 1774 2b3e 3c54 863d 27c9 1c3e
00000080: 3b8f 9c3d 0e9c 853e 87b6 3d3e b637 513c
00000090: 528a 893c e921 133e 5681 1b3e 55f1 a03d
000000a0: 5fae fd3b 77d0 3b3e 5da1 f13d 8835 dc3d
000000b0: b6f0 1b3e f789 f63d a828 d93d c542 653d
000000c0: 7695 063e 5a5c 113e 7dee 313e c478 203e
000000d0: 4b51 cb3d 7927 033e 4e39 553e 8ce7 c23d
000000e0: 1350 033e 9e16 033e 4c6c 0e3e c40e e93d
000000f0: b1fb 273e 934b 123e 943e 8e3c 21e9 593e

model.10.weight f4 [64]
0.9308677 1.0127789 0.986985 1.0040592 0.939087 0.99929184 1.0121785 1.03844
0.9652231 0.9851546 1.192618 1.0189514 0.92864066 1.1031355 0.9930001 1.0945519
1.0060835 1.169731 0.9771274 0.98059887 1.1229292 0.9465231 1.0023499 1.3050275
1.0608941 0.9986433 1.2170871 0.91861516 1.2240028 0.9033797 1.0168061 1.0140681
0.98912615 0.9781458 0.96149015 1.0679643 1.1194694 0.96208274 0.96311694 1.0963701
1.0824773 1.0159086 1.0444711 0.9684964 1.0153521 0.96017635 1.0906518 1.0278184
0.9952138 0.9704291 1.0038139 1.0461254 1.0769212 1.0504471 0.96110463 1.0240701
0.94902337 1.0437521 1.1140467 0.97230375 1.0158188 1.0699954 1.1068845 0.9929836
00000000: 584d 6e3f bda2 813f 0dab 7c3f 0385 803f
00000010: 0168 703f 97d1 7f3f 118f 813f 9aeb 843f
00000020: dc18 773f 1833 7c3f b5a7 983f 006d 823f
00000030: 65bb 6d3f 8b33 8d3f 4135 7e3f 471a 8c3f
00000040: 58c7 803f bfb9 953f 0525 7a3f 8708 7b3f
00000050: 25bc 8f3f 564f 723f 004d 803f 240b a73f
00000060: 61cb 873f 16a7 7f3f 83c9 9b3f 5d2a 6b3f
00000070: 20ac 9c3f e443 673f b426 823f fccc 813f
00000080: 5f37 7d3f c367 7a3f 3824 763f 0eb3 883f
00000090: c64a 8f3f 0e4b 763f d58e 763f db55 8c3f
000000a0: 9e8e 8a3f 4b09 823f 3bb1 853f 61ef 773f
000000b0: 0ff7 813f 1ece 753f 7a9a 8b3f 8e8f 833f
000000c0: 55c6 7e3f 0b6e 783f f97c 803f 70e7 853f
000000d0: 8ed8 893f 0d75 863f f40a 763f bb14 833f
000000e0: 32f3 723f ab99 853f 1599 8e3f e6e8 783f
000000f0: 5a06 823f 9cf5 883f 64ae 8d3f 2c34 7e3f

model.10.bias f4 [64]
-0.27809125 -0.24069637 -0.31697258 -0.32200918 -0.31221685 -0.06293737 -0.30930382 -0.23926379
-0.25270167 -0.18886 -0.18456988 0.13663542 -0.28422827 -0.1931701 -0.29791188 -0.34016374
-0.37038997 -0.08690597 0.5182531 -0.25727525 -0.20388465 -0.28523746 -0.32987288 0.020034067
0.14638853 -0.35692102 -0.22593357 0.29802495 -0.1850179 -0.40891472 -0.37033385 -0.046271782
-0.22371271 -0.27457488 0.28896758 -0.11955255 -0.24838886 -0.3327321 -0.33150265 -0.07360066
-0.19015603 -0.3916781 0.12958954 -0.26397023 -0.117404066 0.5418588 -0.28431305 -0.34380588
-0.13140354 -0.26891708 -0.2864477 -0.22907983 -0.3441855 -0.29116836 0.32869986 -0.19880696
-0.3553879 -0.25479564 -0.17338365 0.36502984 -0.3265856 -0.29483047 -0.3075165 -0.38461182
00000000: fa61 8ebe 1c79 76be 3b4a a2be 63de a4be
00000010: e3da 9fbe 4fe5 80bd 125d 9ebe 9101 75be
00000020: 1d62 81be 8464 41be e3ff 3cbe 28ea 0b3e
00000030: 5e86 91be 62ce 45be e887 98be f129 aebe
00000040: c1a3 bdbe c2fb b1bd 3cac 043f 95b9 83be
00000050: 23c7 50be a50a 92be 19e5 a8be 7c1e a43c
00000060: e0e6 153e 5abe b6be 215b 67be ba96 983e
00000070: 5575 3dbe 455d d1be 669c bdbe 7b87 3dbd
00000080: f214 65be 1495 8cbe 8ff3 933e f8d7 f4bd
00000090: a659 7ebe dd5b aabe b7ba a9be f1bb 96bd
000000a0: 43b8 42be 088a c8be 1fb3 043e 1b27 87be
000000b0: 8b71 f0bd 42b7 0a3f 7b91 91be 5307 b0be
000000c0: a68e 06be 80af 89be 46a9 92be e793 6abe
000000d0: 1539 b0be 0514 95be 594b a83e 0d94 4bbe
000000e0: 67f5 b5be 9374 82be 7c8b 31be 31e5 ba3e
000000f0: 3a36 a7be 05f4 96be cd72 9dbe d7eb c4be

model.10.running_mean f4 [64]
0.9129151 0.9720703 2.1575093 1.9710882 0.89384174 0.28742942 2.0290644 0.29569417
0.41284075 0.4681646 0.12626892 1.2992893 1.2329224 1.0069402 1.7677622 0.16079232
1.0597237 0.0899209 0.44312483 0.21409523 0.7288562 0.41085535 0.5177645 0.09075549
0.9522064 0.75703156 0.027085392 0.7232863 0.4374385 0.6121989 0.5401641 0.41160572
1.531943 1.6508934 0.9806525 0.16596472 0.098760635 0.4348567 1.2425029 0.14906187
0.1407584 1.1163505 0.4510981 0.9729714 0.47728077 0.71637416 0.411106 0.18017235
0.99910444 1.4280486 1.2721944 1.0124875 0.33455884 2.0708106 1.1596339 0.15481114
1.3853333 0.9381065 0.3700036 1.2073134 1.9700624 0.18376875 0.71492046 1.1234648
00000000: ceb4 693f 99d9 783f a214 0a40 9e4c fc3f
00000010: d0d2 643f f329 933e 31dc 0140 3a65 973e
00000020: dd5f d33e 45b3 ef3e a44c 013e 1d4f a63f
00000030: 67d0 9d3f 6be3 803f 0846 e23f bea6 243e
00000040: 07a5 873f 7328 b83d 42e1 e23e c83b 5b3e
00000050: 5296 3a3f a25b d23e 378c 043f 04de b93d
00000060: ccc3 733f d2cc 413f 2fe2 dd3c 4a29 393f
00000070: f0f7 df3e 11b9 1c3f 3248 0a3f fcbd d23e
00000080: b516 c43f 7a50 d33f 0b0c 7b3f a8f2 293e
00000090: 0443 ca3d 8aa5 de3e 560a 9f3f ada3 183e
000000a0: f822 103e 93e4 8e3f 55f6 e63e a714 793f
000000b0: 255e f43e 4c64 373f 7c7c d23e 1a7f 383e
000000c0: 4fc5 7f3f 4cca b63f 44d7 a23f 3199 813f
000000d0: 4c4b ab3e 2988 0440 e26e 943f d086 1e3e
000000e0: 9a52 b13f bf27 703f 1d71 bd3e 3f89 9a3f
000000f0: 012b fc3f e02d 3c3e 0705 373f b2cd 8f3f

model.10.running_var f4 [64]
0.8470829 0.80233186 4.655076 4.1580153 0.7271907 0.15709524 4.466486 0.22825783
0.23653701 0.32740957 0.123257495 2.7379196 1.0565232 3.9414613 2.3764966 0.15576254
1.3526827 0.06934167 0.18713722 0.113249145 4.062059 0.3990111 0.2906798 0.07862448
2.4459462 0.9678136 0.015827227 0.3631654 0.40513963 0.31458086 0.921657 0.39436162
1.5840973 2.7552774 1.3175881 0.18673839 0.08880746 0.37795776 1.2205443 0.22006676
0.11216118 1.1431298 0.6089042 0.7775147 0.3337149 0.5377337 0.51331925 0.65990865
1.5782523 1.0719177 1.283061 2.2998865 1.3911037 5.2588954 0.9926193 0.11813818
1.2564759 2.3593016 0.27692154 0.87484145 3.6689937 0.15353452 2.049862 1.3155727
00000000: 6dda 583f 9f65 4d3f 62f6 9440 760e 8540
00000010: 2b29 3a3f 93dd 203e 74ed 8e40 6cbc 693e
00000020: c236 723e 3aa2 a73e 6d6e fc3d 133a 2f40
00000030: 273c 873f e740 7c40 8518 1840 3780 1f3e
00000040: b524 ad3f 0103 8e3d e6a0 3f3e 2bef e73d
00000050: 63fc 8140 2f4b cc3e fcd3 943e df05 a13d
00000060: 628a 1c40 a2c2 773f 1aa8 813c d1f0 b93e
00000070: 766e cf3e be10 a13e b7f1 6b3f c4e9 c93e
00000080: b3c3 ca3f 7756 3040 baa6 a83f 5938 3f3e
00000090: b0e0 b53d ae83 c13e cc3a 9c3f 2e59 613e
000000a0: c3b4 e53d 1452 923f 25e1 1b3f 340b 473f
000000b0: aedc aa3e eaa8 093f e468 033f c6ef 283f
000000c0: 2c04 ca3f 9934 893f 583b a43f 5731 1340
000000d0: b00f b23f df48 a840 4c1c 7e3f 6ef2 f13d
000000e0: 34d4 a03f ccfe 1640 a9c8 8d3e 9cf5 5f3f
000000f0: cbd0 6a40 2738 1d3e f030 0340 b064 a83f

model.11.weight f4 [128, 64, 3, 3]
0.044300333 0.0059489626 0.026654007 0.07880625 0.020293687 0.0040665222 0.012343542 0.055567194
0.038933773 0.06285934 0.024109835 0.020611377 0.034818273 -0.020309955 -0.02819816 0.049990177
0.0068263793 -0.0073454636 -0.0013044016 -0.039208174 -0.06978132 0.05963089 -0.032459166 -0.014929295
0.00998447 -0.007331609 -0.045964282 0.10395865 0.018665975 0.017036172 0.09295543 -0.03044555
0.0109040765 0.07199061 -0.016832383 -0.03581796 0.01419389 -0.0070387013 -0.024316415 -0.0084868865
0.027585048 -0.020646904 -0.007968954 -0.008101817 0.0029253892 -0.01080907 -0.020682354 -0.023380684
0.046302002 0.0027609123 -0.0761029 0.03814769 -0.014846221 -0.051919986 0.07978515 -0.04467448
-0.018269466 0.07760104 0.014133226 0.0058752145 0.030271318 -0.061554845 -0.043846257 0.08242951
0.0024926772 -0.0002930907 0.08046838 -0.014158759 -0.034667674 0.052533813 -0.032454636 -0.07655611
0.0050825477 0.047173288 0.021994306 0.014260109 -0.0040742992 0.0023383945 -0.0031151124 -0.013497281
0.0030545746 0.0018695573 -0.012759861 -0.060292944 -0.017849086 -0.061003048 -0.02373953 -0.026872182
0.009089542 -0.011141941 -0.09301955 -0.11927744 -0.049427688 -0.19095051 -0.2546933 -0.09302474
-0.030227385 -0.1436121 -0.07268102 0.009587706 -0.055315323 -0.0994241 0.011505169 -0.108986214
-0.104518026 -0.019463444 -0.15894464 -0.09915794 -0.034352846 -0.05606208 -0.07620082 0.034129243
-0.07094873 -0.10884565 0.029648522 -0.064751 -0.03384934 0.08426998 0.048389986 0.07488275
0.040798903 0.11939585 0.10099642 0.042140253 0.13785635 0.070851415 0.031014625 -0.019791923
-0.0024068987 -0.0021724766 -0.059084613 -0.06811126 0.035537157 -0.0020123168 -0.051996734 -0.025161613
-0.0022932598 -0.045825012 -0.050838552 -0.09676257 -0.0778715 -0.008341296 -0.0134101715 -0.06569014
0.005863674 0.050593153 0.056405302 0.077362046 0.010975813 0.0012280204 0.014498933 -0.012242626
-0.01634943 0.013647397 -0.015869271 0.011623761 -0.098907955 -0.110625446 -0.067059636 -0.0843922
-0.078948125 -0.045047004 -0.0056014434 0.041572288 -0.02486835 -0.033706658 -0.00026002104 -0.020552907
-0.05115549 0.034193493 -0.08722496 -0.009716353 -0.015223064 -0.054229576 -0.04716493 -0.07391908
-0.03843257 0.010397773 -0.030063242 -0.0016269264 -0.044411626 0.010530277 0.05062207 -0.012285017
0.013019769 0.028470276 -0.03757219 -0.016089398 0.07031268 -0.0004934615 0.022362243 -0.013818918
-0.010944425 -0.0052326024 0.0018369047 0.0069034025 0.003434234 -0.034766845 0.030229555 0.024139078
-0.01796035 0.047268312 0.02918152 -0.037123967 0.031491213 0.010185018 -0.06276971 -0.045575827
0.0011146411 -0.030527007 -0.16986093 -0.10631788 -0.100940585 -0.067541815 -0.053355455 -0.09956439
0.0047221407 0.03441601 0.025617842 -0.0107859615 0.071657375 0.03793666 -0.044395126 0.021591663
-0.015233595 0.044053283 0.07102641 0.009583923 0.03703796 0.038146213 0.05155245 0.005855737
0.0047123884 0.021072 -0.025136387 -0.056191757 -0.09824453 -0.06871472 -0.16082908 -0.16226882
-0.06055754 -0.11320521 -0.05775184 -0.025115509 0.0070242514 -0.0019253358 -0.07274282 0.015982669
-0.021641064 -0.052715797 0.015841365 0.027714103 -0.011566949 -0.11209522 -0.0033718348 -0.07755278
00000000: 4474 353d 84ef c23b 8159 da3c 2c65 a13d
00000010: f23e a63c 7640 853b 913c 4a3c 6d9a 633d
00000020: 0579 1f3d 66bc 803d fd81 c53c 31d9 a83c
00000030: 9b9d 0e3d 1061 a6bc d4ff e6bc 80c2 4c3d
00000040: d2af df3b 37b2 f0bb 74f8 aaba c098 20bd
00000050: 82e9 8ebd 853f 743d e7f3 04bd 009a 74bc
00000060: e795 233c fe3d f0bb 0b45 3cbd 46e8 d43d
00000070: 63e9 983c 718f 8b3c 6b5f be3d f268 f9bc
00000080: 03a7 323c d06f 933d 11e4 89bc dab5 12bd
00000090: 7d8d 683c e8a4 e6bb 3833 c7bc 950c 0bbc
000000a0: 0afa e13c b223 a9bc 3790 02bc 7cbd 04bc
000000b0: e3b7 3f3b 8718 31bc 0a6e a9bc d988 bfbc
000000c0: 2ba7 3d3d 6cf0 343b d6db 9bbd c140 1c3d
000000d0: 903d 73bc 0daa 54bd 6666 a33d 96fc 36bd
000000e0: d9a9 95bc 4bed 9e3d 0c8f 673c df84 c03b
000000f0: 8efb f73c ef20 7cbd 2298 33bd ced0 a83d
00000100: 2f5c 233b f8a9 99b9 9bcc a43d 24fa 67bc
00000110: b1ff 0dbd b22d 573d 27ef 04bd 73c9 9cbd
00000120: 808b a63b c738 413d 672d b43c 3ba3 693c
00000130: b381 85bb c03f 193b ea26 4cbb b323 5dbc
00000140: 422f 483b ef0b f53a bc0e 51bc bcf5 76bd
00000150: 3f38 92bc 55de 79bd 6779 c2bc 0d23 dcbc
00000160: 4dec 143c b08c 36bc 0981 bebd bb47 f4bd
00000170: b074 4abd 8888 43be 2967 82be c183 bebd
00000180: 6c9f f7bc 0d0f 13be c9d9 94bd c115 1d3c
00000190: 5292 62bd dd9e cbbd 2d80 3c3c 2a34 dfbd
000001a0: 8c0d d6bd cd71 9fbc 62c2 22be 5113 cbbd
000001b0: 92b5 0cbd 5aa1 65bd 2d0f 9cbd 1bcb 0b3d
000001c0: 914d 91bd 78ea debd 75e1 f23c 2c9c 84bd
000001d0: 9ba5 0abd bd95 ac3d 9434 463d 215c 993d
000001e0: c01c 273d d085 f43d 36d7 ce3d 429b 2c3d
000001f0: 372a 0d3e 8c1a 913d 6212 fe3c ac22 a2bc
00000200: 0fbd 1dbb 1c60 0ebb b502 72bd eb7d 8bbd
00000210: 698f 113d 13e1 03bb 87fa 54bd ba1f cebc
00000220: 844a 16bb 02b3 3bbd 163c 50bd 742b c6bd
00000230: 187b 9fbd eea9 08bc 56b6 5bbc 8d88 86bd
00000240: 1024 c03b c43a 4f3d 3f09 673d fe6f 9e3d
00000250: e5d3 333c 87f5 a03a ef8c 6d3c 4c95 48bc
00000260: 3def 85bc 5599 5f3c 4600 82bc 9671 3e3c
00000270: 4190 cabd 988f e2bd 9056 89bd d1d5 acbd
00000280: 8eaf a1bd 3583 38bd 508c b7bb b447 2a3d
00000290: b6b8 cbbc fe0f 0abd 6f53 88b9 925e a8bc
000002a0: 6b88 51bd 7a0e 0c3d 00a3 b2bd 5731 1fbc
000002b0: 296a 79bc d51f 5ebd 0330 41bd e362 97bd
000002c0: 786b 1dbd 6c5b 2a3c 3047 f6bc 973e d5ba
000002d0: f7e8 35bd 2f87 2c3c 1659 4f3d 1947 49bc
000002e0: df50 553c 7f3a e93c 4ce5 19bd eacd 83bc
000002f0: 1800 903d a45b 01ba 0631 b73c be68 62bc
00000300: 3f50 33bc 4076 abbb 4bc4 f03a f035 e23b
00000310: e310 613b ae67 0ebd f9a3 f73c 51bf c53c
00000320: 9521 93bc 6b9c 413d 150e ef3c 4d0f 18bd
00000330: eefc 003d 10df 263c 688d 80bd b8ad 3abd
00000340: 2619 923a c613 fabc 06f0 2dbe 30bd d9bd
00000350: f0b9 cebd 5d53 8abd 408b 5abd 6ae8 cbbd
00000360: 30bc 9a3b cdf7 0c3d 82dc d13c 9ab7 30bc
00000370: 1ac1 923d 7963 1b3d aad7 35bd 00e1 b03c
00000380: 5496 79bc 3771 343d 4b76 913d e305 1d3c
00000390: 1eb5 173d 343f 1c3d a928 533d 7be1 bf3b
000003a0: 616a 9a3b 309f ac3c d3ea cdbc 5429 66bd
000003b0: 6e34 c9bd 4eba 8cbd 61b0 24be cc29 26be
000003c0: 2f0b 78bd 22d8 e7bd 328d 6cbd 0abf cdbc
000003d0: b12b e63b 8d5b fcba 30fa 94bd 16ee 823c
000003e0: 9a48 b1bc 85ec 57bd c0c5 813c b008 e33c
000003f0: 4d83 3dbc 2e92 e5bd 00fa 5cbb fed3 9ebd

model.11.bias f4 [128]
0.003294021 0.21915181 0.17691518 0.2524169 0.09451497 0.0046159606 0.12783198 0.24132366
0.0005435356 0.2321376 0.19970934 0.23178254 0.065296784 0.09592889 0.24531685 0.0822926
0.26637882 0.13098638 0.2003443 0.14190026 0.14492936 0.20819725 0.12272952 0.20352171
0.1777254 0.30923566 0.16442202 0.2390916 0.017505132 0.15651849 0.22005935 0.086027935
0.10072742 0.13862757 -0.0016769291 0.18433887 0.0779147 0.13870147 0.12497754 0.15540542
0.20240404 0.24577524 0.061133582 0.06347062 0.19110632 -0.17600094 0.17542936 0.26599598
0.1900983 0.17702977 0.23537089 0.22144803 0.29032883 0.07449207 0.21383077 0.16910473
0.1347439 0.14976752 0.18457848 0.09204381 0.051667146 0.06096263 0.111376345 0.15537193
0.12555324 0.3423316 0.13198587 0.26458102 0.088022634 0.16958572 0.23562558 0.15713018
0.21543516 0.21840882 0.100941226 0.14123416 0.031474397 -0.0014295125 0.2581964 -0.00982198
0.16674036 0.21430667 0.14002116 0.27996922 0.15926081 0.086842895 0.15450265 0.15614042
0.19939168 0.15914841 0.020181356 0.15478116 0.1420601 0.18905129 0.20585419 0.09332798
0.18007469 0.21211123 0.1582393 0.15566282 0.059305966 0.18770394 0.14560711 0.2156682
0.14453089 0.1110629 0.10395837 0.14820123 0.11694911 0.02551263 0.16713893 0.1783092
0.11070121 0.158594 0.24210896 0.22251521 0.015633324 0.13846171 0.15728681 0.14537331
0.013444128 0.13655248 0.14320508 0.18787883 0.12264829 0.14584614 0.21879253 0.0954437
00000000: 80e0 573b 5569 603e 4129 353e ca3c 813e
00000010: 1191 c13d 7c41 973b 63e6 023e 8d1d 773e
00000020: 0f7c 0e3a 7bb5 6d3e 9b80 4c3e 6758 6d3e
00000030: 52ba 853d 5e76 c43d 5734 7b3e 0689 a83d
00000040: ce62 883e 4b21 063e 0e27 4d3e 4d4e 113e
00000050: 5d68 143e a931 553e 9d59 fb3d ff67 503e
00000060: a6fd 353e 2354 9e3e 3f5e 283e 6ed4 743e
00000070: ec66 8f3c 6246 203e 3d57 613e 6a2f b03d
00000080: 2d4a ce3d 63f4 0d3e 67cc dbba 54c3 3c3e
00000090: be91 9f3d c207 0e3e 39f4 ff3d 9922 1f3e
000000a0: 0143 4f3e 81ac 7b3e 3567 7a3d e2fc 813d
000000b0: 60b1 433e 9739 34be c1a3 333e a030 883e
000000c0: 21a9 423e 4b47 353e 1105 713e 46c3 623e
000000d0: fba5 943e 4c8f 983d 74f6 5a3e ca29 2d3e
000000e0: 4efa 093e a85c 193e 2402 3d3e 7781 bc3d
000000f0: eea0 533d f3b3 793d 4819 e43d d219 1f3e
00000100: 0791 003e 1646 af3e 4e27 073e 2a77 873e
00000110: 3645 b43d e1a7 2d3e d547 713e bce6 203e
00000120: 099b 5c3e 90a6 5f3e 46ba ce3d b09f 103e
00000130: 4ceb 003d 7b5e bbba 5232 843e 5fec 20bc
00000140: fcbd 2a3e 3573 5b3e b561 0f3e 2058 8f3e
00000150: 4415 233e b0da b13d f135 1e3e 46e3 1f3e
00000160: 552d 4c3e cdf7 223e 5f53 a53c f47e 1e3e
00000170: 3478 113e a996 413e 71cb 523e bd22 bf3d
00000180: 8065 383e b033 593e 7c09 223e 1366 1f3e
00000190: d0ea 723d 7635 403e 081a 153e 20d8 5c3e
000001a0: e8ff 133e f274 e33d 20e8 d43d 10c2 173e
000001b0: 0483 ef3d ddff d03c 7826 2b3e b096 363e
000001c0: 51b7 e23d 7766 223e 69eb 773e 07db 633e
000001d0: 7511 803c e8c8 0d3e cb0f 213e bedc 143e
000001e0: c344 5c3c 6ad4 0b3e 5aa4 123e 4f63 403e
000001f0: 072f fb3d b158 153e 260b 603e fd77 c33d

model.14.weight f4 [128]
1.0717376 1.0394406 1.041177 0.99241734 1.0390487 1.0595391 1.075205 1.0359373
1.0264814 1.0162619 0.95288604 1.0421503 1.0716318 0.9676915 1.0608064 1.032915
0.99514973 1.0654187 0.95112294 1.0045259 1.0915809 1.0162805 1.0301739 1.052826
1.0758163 1.0770805 1.0892305 1.0277368 1.0208254 1.0692986 1.0432019 1.1177745
1.0053049 1.0338595 1.0018946 1.0425748 1.0486875 0.98804003 1.0592794 1.0783926
0.96439385 1.046264 1.0017191 1.01886 1.044913 1.0467097 1.055277 0.98870933
0.9466986 1.0794001 1.0211394 1.0392115 1.0130898 1.048983 1.056841 1.0167552
1.0453806 0.95713085 1.0625421 0.9786869 1.1170602 1.0815523 1.0035099 1.0768788
1.0604749 1.0623559 1.0332178 1.1057345 1.0025368 0.98086786 1.069454 1.1035084
1.0711254 1.0020491 1.0683458 0.97281617 1.1025883 0.98063797 0.97518665 1.0497065
1.0562153 1.0439272 0.99553376 1.0401957 0.9658344 1.0816593 1.0394863 1.0123941
0.98346967 1.0189766 1.0409769 1.1028068 1.0647978 1.0898541 0.9587036 0.96857697
1.0526131 0.98810637 0.97209686 1.0078366 1.0173911 1.0130658 0.9756688 1.05179
1.0449814 1.0643059 1.0902412 0.9846728 0.9761097 1.3388236 1.0067667 1.0193871
0.980946 0.9515839 1.0235133 1.070368 1.0076329 0.99230313 1.0140923 0.97668815
1.070458 1.0301183 1.0762864 1.0241029 0.93908244 1.1102061 1.0084188 1.009955
00000000: b32e 893f 640c 853f 4a45 853f 100f 7e3f
00000010: 8cff 843f fa9e 873f 51a0 893f 9899 843f
00000020: be63 833f df14 823f 57f0 733f 2e65 853f
00000030: 3b2b 893f a1ba 773f 81c8 873f 8f36 843f
00000040: 22c2 7e3f a45f 883f cb7c 733f 4e94 803f
00000050: ecb8 8b3f 7b15 823f bddc 833f 01c3 863f
00000060: 59b4 893f c6dd 893f e86b 8b3f e18c 833f
00000070: 68aa 823f c7de 883f a487 853f 3c13 8f3f
00000080: d5ad 803f 8255 843f 153e 803f 1773 853f
00000090: 643b 863f 31f0 7c3f 7896 873f c508 8a3f
000000a0: 84e2 763f fbeb 853f 5538 803f 016a 823f
000000b0: b6bf 853f 95fa 853f 5113 873f 0e1c 7d3f
000000c0: d75a 723f c829 8a3f b2b4 823f e204 853f
000000d0: edac 813f 1345 863f 9146 873f 0925 823f
000000e0: 08cf 853f 8706 753f 6101 883f 3a8b 7a3f
000000f0: d4fb 8e3f 4e70 8a3f 0373 803f 2ad7 893f
00000100: a4bd 873f 47fb 873f 7b40 843f b588 8d3f
00000110: 2053 803f 281a 7b3f dee3 883f c33f 8d3f
00000120: a31a 893f 2543 803f 8ebf 883f 7b0a 793f
00000130: 9d21 8d3f 170b 7b3f d5a5 793f c85c 863f
00000140: 1032 873f 689f 853f 4ddb 7e3f 2225 853f
00000150: ec40 773f d073 8a3f e30d 853f 2196 813f
00000160: abc4 7b3f d36d 823f bb3e 853f c628 8d3f
00000170: 4b4b 883f 5780 8b3f 996d 753f a9f4 773f
00000180: 07bc 863f 8af4 7c3f 57db 783f ca00 813f
00000190: df39 823f 24ac 813f 6ec5 793f 0ea1 863f
000001a0: f3c1 853f 2d3b 883f 068d 8b3f 8413 7c3f
000001b0: 53e2 793f 925e ab3f bbdd 803f 477b 823f
000001c0: 471f 7b3f 019b 733f 7c02 833f d201 893f
000001d0: 1dfa 803f 9407 7e3f c7cd 813f 3c08 7a3f
000001e0: c504 893f ebda 833f c1c3 893f ce15 833f
000001f0: b567 703f 3c1b 8e3f de13 813f 3546 813f

model.14.bias f4 [128]
0.0 0.0 0.0 0.0 0.0 0.0 0.0 0.0
0.0 0.0 0.0 0.0 0.0 0.0 0.0 0.0
0.0 0.0 0.0 0.0 0.0 0.0 0.0 0.0
0.0 0.0 0.0 0.0 0.0 0.0 0.0 0.0
0.0 0.0 0.0 0.0 0.0 0.0 0.0 0.0
0.0 0.0 0.0 0.0 0.0 0.0 0.0 0.0
0.0 0.0 0.0 0.0 0.0 0.0 0.0 0.0
0.0 0.0 0.0 0.0 0.0 0.0 0.0 0.0
0.0 0.0 0.0 0.0 0.0 0.0 0.0 0.0
0.0 0.0 0.0 0.0 0.0 0.0 0.0 0.0
0.0 0.0 0.0 0.0 0.0 0.0 0.0 0.0
0.0 0.0 0.0 0.0 0.0 0.0 0.0 0.0
0.0 0.0 0.0 0.0 0.0 0.0 0.0 0.0
0.0 0.0 0.0 0.0 0.0 0.0 0.0 0.0
0.0 0.0 0.0 0.0 0.0 0.0 0.0 0.0
0.0 0.0 0.0 0.0 0.0 0.0 0.0 0.0
00000000: 0000 0000 0000 0000 0000 0000 0000 0000
00000010: 0000 0000 0000 0000 0000 0000 0000 0000
00000020: 0000 0000 0000 0000 0000 0000 0000 0000
00000030: 0000 0000 0000 0000 0000 0000 0000 0000
00000040: 0000 0000 0000 0000 0000 0000 0000 0000
00000050: 0000 0000 0000 0000 0000 0000 0000 0000
00000060: 0000 0000 0000 0000 0000 0000 0000 0000
00000070: 0000 0000 0000 0000 0000 0000 0000 0000
00000080: 0000 0000 0000 0000 0000 0000 0000 0000
00000090: 0000 0000 0000 0000 0000 0000 0000 0000
000000a0: 0000 0000 0000 0000 0000 0000 0000 0000
000000b0: 0000 0000 0000 0000 0000 0000 0000 0000
000000c0: 0000 0000 0000 0000 0000 0000 0000 0000
000000d0: 0000 0000 0000 0000 0000 0000 0000 0000
000000e0: 0000 0000 0000 0000 0000 0000 0000 0000
000000f0: 0000 0000 0000 0000 0000 0000 0000 0000
00000100: 0000 0000 0000 0000 0000 0000 0000 0000
00000110: 0000 0000 0000 0000 0000 0000 0000 0000
00000120: 0000 0000 0000 0000 0000 0000 0000 0000
00000130: 0000 0000 0000 0000 0000 0000 0000 0000
00000140: 0000 0000 0000 0000 0000 0000 0000 0000
00000150: 0000 0000 0000 0000 0000 0000 0000 0000
00000160: 0000 0000 0000 0000 0000 0000 0000 0000
00000170: 0000 0000 0000 0000 0000 0000 0000 0000
00000180: 0000 0000 0000 0000 0000 0000 0000 0000
00000190: 0000 0000 0000 0000 0000 0000 0000 0000
000001a0: 0000 0000 0000 0000 0000 0000 0000 0000
000001b0: 0000 0000 0000 0000 0000 0000 0000 0000
000001c0: 0000 0000 0000 0000 0000 0000 0000 0000
000001d0: 0000 0000 0000 0000 0000 0000 0000 0000
000001e0: 0000 0000 0000 0000 0000 0000 0000 0000
000001f0: 0000 0000 0000 0000 0000 0000 0000 0000

model.14.running_mean f4 [128]
1.7355291 0.39470544 1.9288181 1.3010914 1.0250102 1.8356608 3.9222305 3.6785557
0.8141513 1.9513247 3.2639377 2.8580463 0.85885656 0.65580666 4.4601707 0.2442833
3.646167 2.8374896 0.62233007 0.35456774 0.8594278 2.5519133 0.17345548 2.3039823
1.6319212 2.9461045 2.170531 2.492511 1.8081201 0.7612333 2.0716717 0.86029345
2.6949492 2.5765498 0.21651284 1.3388978 0.71132547 1.4194041 0.9905571 1.1133317
3.4536278 1.8623911 0.44867423 1.694167 2.0664606 -0.07564909 1.5972958 2.7506049
1.0439016 2.4644945 3.0557954 1.5944583 3.972761 0.8899882 1.7779334 2.2676733
0.9220871 0.7952739 0.54641217 2.072447 1.2415384 0.22216976 2.0599866 2.2086186
2.7786207 2.6253633 1.2734585 2.7808084 1.4777725 3.354971 0.8953662 3.3205056
1.1210378 3.6570423 0.6822097 2.412334 0.88318646 0.8175299 2.3400366 0.055702634
3.018416 3.9416697 2.0494223 4.119225 0.67821836 2.16236 0.57159334 2.1190796
0.67981553 2.4718485 0.2386252 0.98593414 1.5463842 2.8167481 1.4616826 0.46250632
1.1327398 4.1588473 0.8263173 2.4064608 0.78957325 0.66128093 3.1872964 2.5711677
1.4310222 0.94380087 1.4837726 2.2148447 0.72972363 0.91448224 2.6879106 0.2922407
1.5558583 0.5867693 3.8822813 1.2045672 1.2467958 3.0603569 1.2158545 1.7398658
0.46165314 2.4034832 1.9532026 0.46493003 0.59704304 0.8503745 2.8070824 0.33976224
00000000: d125 de3f d516 ca3e 83e3 f63f 2a8a a63f
00000010: 8933 833f eff6 ea3f d305 7b40 756d 6b40
00000020: 386c 503f 02c5 f93f 5be4 5040 3bea 3640
00000030: 06de 5b3f f2e2 273f b8b9 8e40 6725 7a3e
00000040: cd5a 6940 6e99 3540 0651 1f3f e789 b53e
00000050: 7603 5c3f 8c52 2340 509e 313e 7274 1340
00000060: cbe2 d03f fa8c 3c40 fbe9 0a40 4d85 1f40
00000070: 7b70 e73f 30e0 423f 4596 0440 313c 5c3f
00000080: 0c7a 2c40 31e6 2440 8bb5 5d3e 0161 ab3f
00000090: 6d19 363f 09af b53f 2695 7d3f a781 8e3f
000000a0: 3d08 5d40 d562 ee3f a1b8 e53e 77da d83f
000000b0: e440 0440 e9ed 9abd 3074 cc3f e909 3040
000000c0: 919e 853f 47ba 1d40 2792 4340 3617 cc3f
000000d0: b741 7e40 44d6 633f 5293 e33f 8f21 1140
000000e0: e60d 6c3f 1297 4b3f abe1 0b3f f9a2 0440
000000f0: bbea 9e3f 7880 633e d2d6 0340 025a 0d40
00000100: ecd4 3140 f405 2840 b000 a33f c4f8 3140
00000110: a627 bd3f d8b7 5640 b836 653f 2a83 5440
00000120: 2b7e 8f3f fb0c 6a40 4ba5 2e3f ae63 1a40
00000130: 8218 623f a449 513f 29c3 1540 7228 643d
00000140: ba2d 4140 5144 7c40 bc29 0340 b1d0 8340
00000150: b89f 2d3f 1b64 0a40 f153 123f 009f 0740
00000160: 6408 2e3f c432 1e40 2a5a 743e 2e66 7c3f
00000170: ebef c53f 9a45 3440 6a18 bb3f a1cd ec3e
00000180: 9efd 903f 4715 8540 8889 533f 7403 1a40
00000190: 7921 4a3f b549 293f aafc 4b40 038e 2440
000001a0: bc2b b73f ef9c 713f 43ec bd3f 04c0 0d40
000001b0: 2bcf 3a3f 821b 6a3f ba06 2c40 93a0 953e
000001c0: 5d26 c73f 8336 163f 4c77 7840 422f 9a3f
000001d0: 0197 9f3f e3dc 4340 1fa1 9b3f ecb3 de3f
000001e0: cd5d ec3e abd2 1940 8b02 fa3f 4f0b ee3e
000001f0: d0d7 183f 25b2 593f 3da7 3340 51f5 ad3e

model.14.running_var f4 [128]
9.320014 0.95154166 5.6861515 2.0916111 3.64432 3.4548285 12.523309 8.339102
4.5851245 5.0706306 5.958922 11.53453 1.9813777 2.2126856 11.184101 0.9459319
7.19307 8.886199 0.78232807 0.26818824 1.8006076 5.770721 0.48409563 4.777871
5.724634 4.723788 7.79002 7.310155 14.51123 3.5115056 5.8923707 4.6208453
6.11625 9.778839 3.998059 3.7801764 1.097607 3.153854 3.7663841 3.7339902
7.66361 3.3367486 1.3892572 4.4711194 4.0154634 1.1236233 4.084663 5.523209
1.5733731 6.747672 9.854458 3.4511287 11.432918 9.756077 2.852999 4.9006457
7.0114803 2.2912335 2.246849 4.5033693 6.164101 0.20337215 5.020352 8.70647
10.349293 5.982014 5.0510116 6.8098617 5.5903444 6.408117 2.9254265 10.289381
2.66354 8.138294 3.5584514 4.215724 5.5231338 0.6550901 3.4378343 2.7355165
7.0196643 9.867192 4.058996 8.957209 1.4694002 6.409169 3.1395023 6.332522
2.493082 6.4922013 5.3821845 3.6745505 3.2276032 9.136042 3.0525937 0.45041534
4.8623824 11.6503105 1.4370775 7.888543 8.406515 1.3760098 6.1455956 5.3606787
3.812947 4.0666013 3.1124442 4.981521 0.72507024 4.579384 4.848862 0.61811393
3.9004366 0.72845435 9.95989 4.5149655 1.6648351 8.344865 2.6131945 2.9801674
4.810116 8.225693 6.5143137 1.2044915 1.0429344 2.9045143 6.167572 0.8451552
00000000: c71e 1541 3c98 733f f4f4 b540 f5dc 0540
00000010: 8a3c 6940 e91b 5d40 795f 4841 f66c 0541
00000020: 57b9 9240 9b42 a240 7daf be40 6f8d 3841
00000030: c99d fd3f a49c 0d40 14f2 3241 9828 723f
00000040: a12d e640 df2d 0e41 a746 483f f84f 893e
00000050: 4f7a e63f bfa9 b840 62db f73e 52e4 9840
00000060: 3430 b740 4529 9740 d847 f940 caec e940
00000070: 002e 6841 82bc 6040 4d8e bc40 f7dd 9340
00000080: 52b8 c340 2076 1c41 33e0 7f40 69ee 7140
00000090: 637e 8c3f bed8 4940 700c 7140 b2f9 6e40
000000a0: 4b3c f540 4a8d 5540 2ed3 b13f 6913 8f40
000000b0: ad7e 8040 e3d2 8f3f 8fb5 8240 21be b040
000000c0: 4a64 c93f eeec d740 dcab 1d41 4bdf 5c40
000000d0: 3bed 3641 e418 1c41 8997 3640 17d2 9c40
000000e0: 0c5e e040 92a3 1240 60cc 0f40 9a1b 9040
000000f0: 5140 c540 ca40 503e b9a6 a040 b34d 0b41
00000100: b496 2541 a96c bf40 e3a1 a140 63ea d940
00000110: 1ae4 b240 4b0f cd40 303a 3b40 4ea1 2441
00000120: 7077 2a40 7436 0241 abbd 6340 36e7 8640
00000130: 83bd b040 fcb3 273f 7a05 5c40 b412 2f40
00000140: 17a1 e040 05e0 1d41 4ce3 8140 ba50 0f41
00000150: 4e15 bc3f ea17 cd40 9bed 4840 05a4 ca40
00000160: a88e 1f40 1dc0 cf40 db3a ac40 d62b 6b40
00000170: 0d91 4e40 3a2d 1241 b25d 4340 d79c e63e
00000180: a398 9b40 ac67 3a41 28f2 b73f f26e fc40
00000190: 1681 0641 1721 b03f b8a8 c440 ae8a ab40
000001a0: 5307 7440 9921 8240 4932 4740 9f68 9f40
000001b0: 349e 393f 508a 9240 e129 9b40 b73c 1e3f
000001c0: c1a0 7940 fc7b 3a3f b65b 1f41 997a 9040
000001d0: 5119 d53f 9184 0541 943e 2740 10bb 3e40
000001e0: 78ec 9940 709c 0341 4275 d040 c72c 9a3f
000001f0: e07e 853f 90e3 3940 c05c c540 175c 583f
